model.pth (torch, 6215 bytes, 5 tensors)

weight f4 [20, 26]
0	0x3f84977d	1.035873
1	0x400054a6	2.0051665
2	0xbfba3dc3	-1.4550098
3	0xbe9ca9d9	-0.30598333
4	0x3d80e625	0.062938966
5	0x3f14c3df	0.58111376
6	0xbd5cdf72	-0.05392403
7	0xbdbaeb90	-0.09126961
8	0xbea37ff8	-0.3193357
9	0xbf2dfc5d	-0.679632
10	0xbf087bdc	-0.53313994
11	0x3ec89d2a	0.39182407
12	0xbd9a0a5b	-0.075215064
13	0xbe9f2ca6	-0.31088752
14	0x3f16685d	0.58752996
15	0xbf7fd580	-0.9993515
16	0xbeeb9d43	-0.4601842
17	0xc0064773	-2.098111
18	0x3eb82bd4	0.35970938
19	0x3cd2e089	0.025741832
20	0xbeec20fe	-0.4611892
21	0xbeb351c6	-0.35023326
22	0x3d60fb60	0.05492723
23	0xbeab9d6e	-0.33518547
24	0x3d3de210	0.046358168
25	0x3fdb27eb	1.7121557
26	0xbecabae1	-0.39595702
27	0xbfbb3c1b	-1.4627718
28	0xbf30486a	-0.68860495
29	0x3e07fb59	0.13279475
30	0x3e147f58	0.14501703
31	0xbf5a2422	-0.85211384
32	0xbf1ede6b	-0.6205813
33	0x3ee0758b	0.43839678
34	0xbe4e1bb1	-0.20127751
35	0xbf2dee1b	-0.67941445
36	0x3e92aabb	0.28645882
37	0x3e8f0f14	0.2794119
38	0xbd1b4483	-0.037907135
39	0xbed9fd63	-0.4257613
40	0xbe7fe83b	-0.24990933
41	0xbf88bb63	-1.0682186
42	0x3eb5fbf2	0.35543782
43	0x3eb12d0b	0.34604678
44	0xbe7c7ed6	-0.24657759
45	0x3ebb645c	0.36600006
46	0xbdcc8d18	-0.09987849
47	0xbe2ea7dc	-0.17056221
48	0xbed197d2	-0.40936142
49	0x3f620259	0.8828483
50	0xbe9d129e	-0.30678266
51	0x3f7ee452	0.9956714
52	0x3ff1f063	1.8901485
53	0x3f4e175c	0.80504394
54	0xbfbf33a5	-1.4937636
55	0xbe8b58e9	-0.2721627
56	0xbac92d36	-0.0015348557
57	0xbf7f3674	-0.99692464
58	0xbf8dded9	-1.1083633
59	0xbe54532c	-0.20734853
60	0x3f14d785	0.58141357
61	0x3f2f6ffd	0.68530256
62	0xbf02d724	-0.5110953
63	0xbdd283c0	-0.102790356
64	0x3f0b0b77	0.5431437
65	0x3ed572b7	0.41689083
66	0xbe24282c	-0.1603095
67	0xbfbb5616	-1.4635646
68	0x3e091f24	0.13390785
69	0xbf4b6f1f	-0.7946643
70	0xbed63fc7	-0.41845533
71	0x3f599427	0.8499169
72	0x3e7c0650	0.24611783
73	0x3f9e4b02	1.236664
74	0x3e632dac	0.22185391
75	0x3f6ac481	0.9170609
76	0x3e33e608	0.17568219
77	0x4003a671	2.0570338
78	0xbdefa0d4	-0.117005974
79	0x3fcaa25b	1.5830797
80	0x3d16a136	0.036774836
81	0xbe848ad8	-0.2588718
82	0x3a429a82	0.0007423536
83	0x3f630fe0	0.886961
84	0xbf3902be	-0.7226981
85	0xbeba793c	-0.3642062
86	0xbde86c1f	-0.113487475
87	0xbf160576	-0.5860208
88	0xbf4dc695	-0.8038114
89	0x3e51c6ad	0.20485945
90	0xbea22ca9	-0.31674698
91	0x3eaff8ef	0.3436961
92	0xbe2e741a	-0.17036477
93	0xbf016a95	-0.50553256
94	0x3e9844ea	0.29740077
95	0xbf10479d	-0.56359273
96	0xbe4084c2	-0.18800643
97	0x3f29128a	0.66043913
98	0xbd930d2c	-0.07180247
99	0x3ed6361b	0.41838154
100	0xbeea79b1	-0.45795968
101	0x40006bc3	2.0065773
102	0xbdc717c4	-0.0972133
103	0xbcf23987	-0.029568447
104	0x3f022fd5	0.50854236
105	0x3e630d55	0.22173055
106	0x3e6079ed	0.21921511
107	0xbcae1240	-0.021248937
108	0xbee08d3c	-0.43857753
109	0xbf403f92	-0.75097
110	0xbe875df6	-0.26438874
111	0x3b8666b5	0.004101599
112	0xbe7adaf2	-0.24497584
113	0xbe602d67	-0.2189232
114	0xbe94d429	-0.29068115
115	0xbeec1297	-0.46107933
116	0xbe7db6d5	-0.24776776
117	0x3e9d70f1	0.3075023
118	0xbe8fe6e7	-0.28105852
119	0xbf09cad7	-0.53825134
120	0x3e9665ca	0.29374534
121	0xbfa33f9c	-1.2753787
122	0xbe842a74	-0.2581364
123	0xbf247b52	-0.6425067
124	0xbd840c5c	-0.0644767
125	0xbf6cbe8a	-0.9247824
126	0x3ed566c2	0.4167996
127	0xbede2fa9	-0.43395737
128	0x3eac581a	0.33660966
129	0x3ee14c09	0.44003323
130	0x3c8387f3	0.016056037
131	0x3f8d540f	1.1041278
132	0xbfda1574	-1.7037797
133	0xbeb3f578	-0.35148215
134	0xbec74748	-0.3892157
135	0xbede8e75	-0.4346806
136	0xbf8fc39b	-1.1231569
137	0xbde50dbf	-0.111842625
138	0xbc18e139	-0.009331041
139	0x3f9337b0	1.150137
140	0xbed53654	-0.41643012
141	0x3e0b7ad8	0.1362108
142	0xbe3de954	-0.18546039
143	0x3ee39c07	0.44454977
144	0x3ea8dc4d	0.32980576
145	0xbe518169	-0.20459522
146	0x3ead7742	0.3388005
147	0x4019d523	2.4036338
148	0xbe3f5fe4	-0.18688923
149	0x400725d5	2.111684
150	0x3e4e2344	0.2013064
151	0x3f880fbd	1.0629803
152	0x3e6ff9ac	0.23435086
153	0xbc4065ea	-0.011743048
154	0xbe5ae7f0	-0.2137754
155	0xbf0dc1eb	-0.5537402
156	0xc01c2d62	-2.44027
157	0xbf161863	-0.5863096
158	0x3e725012	0.23663357
159	0xbf0636a3	-0.5242712
160	0xbc241a2d	-0.010016006
161	0x3f7138c6	0.94227254
162	0x3ee04f18	0.43810344
163	0x3e290a30	0.16507792
164	0xbde00178	-0.1093778
165	0x3f1c5f85	0.6108325
166	0x3fbfedc5	1.4994437
167	0x3dcc2c67	0.099694066
168	0x3e89b281	0.26894
169	0xbed1dc07	-0.4098818
170	0xbda6b6e9	-0.08140356
171	0x3f0ed84f	0.5579881
172	0x3d9ba028	0.07598907
173	0x3f482904	0.78187585
174	0xbd3641d0	-0.044496357
175	0xbf9aeae0	-1.2102928
176	0xbe62c616	-0.22145876
177	0x3f9e539c	1.2369266
178	0xbe28ca5c	-0.16483444
179	0x3f4b8e4b	0.79513997
180	0x3ee26a6e	0.44221824
181	0x3f9cb236	1.2241886
182	0x3f3781e8	0.71682596
183	0xbf7a7900	-0.9784088
184	0xbc21bac1	-0.009871186
185	0xbea053e1	-0.31313995
186	0xbe87fc8b	-0.26559862
187	0xbebfccab	-0.37460837
188	0x3ef5f623	0.4803935
189	0xbe678510	-0.22609353
190	0x3e9bd435	0.3043534
191	0xbe3f331d	-0.18671842
192	0x3eaae191	0.3337522
193	0x3e782495	0.24232705
194	0xbdc308d5	-0.09523169
195	0xbe86bbf6	-0.26315278
196	0x3ea86e0e	0.32896465
197	0x3f0e7302	0.5564424
198	0x3ed2e544	0.4119054
199	0x3fa0c064	1.2558713
200	0x3c407220	0.0117459595
201	0x40008fd6	2.008779
202	0xbe6d0c50	-0.23149228
203	0xc0004636	-2.0042853
204	0x3e9f6b02	0.31136328
205	0x3f07c3e1	0.5303326
206	0x3e6d8ea8	0.2319895
207	0xbfc381c2	-1.5273974
208	0x3f7c540c	0.98565745
209	0x3e1b8e41	0.15190984
210	0xbfbfbf7a	-1.4980309
211	0xbb811b1f	-0.0039400007
212	0x3e94d9af	0.2907233
213	0x3e49b790	0.1969893
214	0xbfb53301	-1.415619
215	0x3dd5e61f	0.10444283
216	0xbe15a8bc	-0.14615148
217	0xbe4e1844	-0.20126444
218	0xbfb1524b	-1.3853239
219	0x3e913acf	0.2836518
220	0xbea11b12	-0.31465966
221	0xbe98ffdb	-0.29882702
222	0xbed5cbd9	-0.41757086
223	0xbf49dec4	-0.7885554
224	0x3e56b1c8	0.20966256
225	0xbf82a729	-1.0207263
226	0x3bfd6340	0.007732779
227	0x4019d824	2.4038172
228	0x3ca92de0	0.020651758
229	0x4004dd31	2.0760005
230	0x3e9dd240	0.3082447
231	0xbe8d690c	-0.27619207
232	0xbc650580	-0.013978362
233	0x3fef936e	1.8716867
234	0xbe76c8af	-0.24099992
235	0x3f258727	0.6465935
236	0xbff16f6a	-1.8862126
237	0xbe9b529a	-0.30336457
238	0xbeda5e09	-0.42649868
239	0x3ec46637	0.38359234
240	0xbed91e9c	-0.42406166
241	0x3bcd6b79	0.0062689153
242	0xbe33b85a	-0.17550793
243	0x3ebf83c9	0.37405232
244	0xbf284a64	-0.6573851
245	0x3da66e70	0.08126533
246	0x3ea07224	0.31337082
247	0x3de6b0a0	0.11264157
248	0x3ec251b3	0.37952957
249	0x3f8626d1	1.0480596
250	0x3ed6085e	0.4180326
251	0xbe1f579a	-0.15560761
252	0xbe1bbba6	-0.15208301
253	0x3e7ac961	0.24490882
254	0x3d98b6e8	0.074567616
255	0xbfd31b91	-1.6492788

bias f4 [20]
0	0xbf06ef02	-0.52708447
1	0x3eff70be	0.49890703
2	0xbffd34be	-1.9781721
3	0xbeb18d45	-0.34678093
4	0x3f1c4a5e	0.61050975
5	0x3f0a8637	0.54111046
6	0x3ec0f32f	0.37685534
7	0xbef8536a	-0.4850114
8	0xbf72724c	-0.94705653
9	0xbe85e3b0	-0.26150274
10	0x3d43d7d7	0.047813263
11	0x3e5e6ae2	0.2172046
12	0xbfcbeefb	-1.5932306
13	0x3f27f9d5	0.6561559
14	0xc000a466	-2.010034
15	0xbfb5367d	-1.4157254
16	0xbe00c186	-0.12573823
17	0xbf837d0f	-1.027254
18	0xbf2982b6	-0.66215074
19	0xbecf65a1	-0.40507224

weight f4 [10, 20]
0	0xbb85b67e	-0.0040805927
1	0xbf5ed646	-0.87045705
2	0x3e3d5679	0.18490018
3	0xbfd41d6f	-1.6571482
4	0xbfcc6328	-1.596776
5	0xc0377751	-2.8666575
6	0xbffaa9dc	-1.9583087
7	0x3e8ad5eb	0.2711633
8	0x404173c6	3.0226912
9	0x3f93cd02	1.1546938
10	0x3eded2db	0.43520245
11	0x400b1180	2.172943
12	0x3db1c7c9	0.08680684
13	0x3e65d900	0.2244606
14	0xc00f05a5	-2.2347195
15	0xbf961cd1	-1.1727544
16	0xbeb3785c	-0.35052764
17	0xbea847f6	-0.32867402
18	0x3faef8a4	1.3669629
19	0x3fc55042	1.5415118
20	0x3f8e6793	1.1125358
21	0x3f952b89	1.1653911
22	0xc047efcc	-3.124011
23	0x3ee6f94b	0.4511207
24	0x3e679365	0.2261482
25	0x3eff28ee	0.49835914
26	0x3e22ee3a	0.15911189
27	0xbfa718a4	-1.3054395
28	0xbfb64f43	-1.4242939
29	0x3f32905b	0.6975152
30	0x3f1e09e8	0.61733866
31	0x3f666775	0.9000161
32	0xbe3ec96f	-0.18631528
33	0xc027129b	-2.6105106
34	0xbf4ca3b6	-0.79937303
35	0x3f1f4a70	0.6222296
36	0x3f1fdd90	0.6244745
37	0x3f63e9a6	0.89028394
38	0xbe612a73	-0.2198885
39	0xbf8b0481	-1.086075
40	0xbf680dd2	-0.9064609
41	0x3f94b37f	1.1617278
42	0xc00acc38	-2.1687145
43	0xbf324842	-0.69641507
44	0x3fdbd8be	1.717552
45	0x3f7a124c	0.9768417
46	0xbe8bf5b8	-0.27335906
47	0x3f80dfe0	1.0068321
48	0xbf7e7019	-0.993898
49	0xbd30205c	-0.04299961
50	0xbef63451	-0.4808679
51	0xbfc2047e	-1.5157621
52	0x3ef7689d	0.48322
53	0xbc409af6	-0.011755696
54	0x3ee51546	0.44742793
55	0xbf7c70cc	-0.98609614
56	0xbfd8b8a9	-1.6931354
57	0x3e317c91	0.17332675
58	0xbd8e5e04	-0.06951526
59	0x3f4b9370	0.79521847
60	0xc018d20e	-2.3878207
61	0x3fa21d47	1.2665185
62	0x3e9d0630	0.30668783
63	0xbf0b51a7	-0.54421467
64	0x3fc74414	1.5567651
65	0x3ff9a0eb	1.9502233
66	0xbf9f578b	-1.2448591
67	0x3f800b0a	1.0003369
68	0x3cd5822f	0.026063053
69	0xbe61e0ce	-0.22058412
70	0xbe84c4d3	-0.25931415
71	0xc05f39be	-3.4878993
72	0x3f59e53a	0.85115397
73	0xbe7acf27	-0.24493085
74	0xbf811c5d	-1.0086781
75	0x3ff31187	1.8989724
76	0x3ff69eed	1.926725
77	0xc02301fe	-2.5469966
78	0xbfec661f	-1.8468665
79	0x3f5bc39e	0.85845363
80	0x400cbf9f	2.1991956
81	0x3f1f7549	0.6228834
82	0xbf0cd706	-0.550156
83	0x3f11c45a	0.56940234
84	0x3eca6c10	0.3953557
85	0xbf549d48	-0.8305249
86	0x3e70b421	0.23506214
87	0x400937dc	2.1440344
88	0xbe808686	-0.25102633
89	0xc0143ad0	-2.3160896
90	0xbf9c59d7	-1.2214917
91	0x3ed795e2	0.4210654
92	0x3f894723	1.0724834
93	0xbf840f9b	-1.0317262
94	0xbdbc9e01	-0.09209824
95	0x3ff4f736	1.9137943
96	0xbecca2ca	-0.39967948
97	0xc0089fad	-2.1347458
98	0x3f20f104	0.6286776
99	0xc03bc553	-2.9339187
100	0x3f144ca0	0.5792942
101	0xbf649883	-0.89295214
102	0xbf324e4a	-0.6965071
103	0xbf3452af	-0.70438665
104	0x3e9bc4e5	0.30423656
105	0x3e530bdf	0.20609997
106	0xbea52b97	-0.3225982
107	0x3f6fe4ba	0.93708384
108	0xbfeb7135	-1.8393923
109	0xc00a1459	-2.157492
110	0xbf785c3d	-0.97015744
111	0xbef04d06	-0.46933764
112	0x3fecb5f8	1.8493032
113	0xc011fe57	-2.2811487
114	0xbebdc208	-0.37062097
115	0xbfa406f1	-1.2814618
116	0x3f57a5c7	0.8423733
117	0x3e8de9ae	0.27717346
118	0x40097f4f	2.1483953
119	0xbf13be73	-0.5771248
120	0x3f23682b	0.6383082
121	0x3eed1e61	0.4631224
122	0xbfb6d355	-1.4283243
123	0x3efd98d4	0.4953066
124	0xbef9fb0d	-0.4882435
125	0xbe42459e	-0.1897187
126	0xbe308c85	-0.17241104
127	0xbef4512c	-0.4771818
128	0xbf69e7a3	-0.91369075
129	0xbf2759d2	-0.6537143
130	0x3f3a6582	0.7281114
131	0xbe24b1d8	-0.16083467
132	0x3eaa1d9f	0.33225724
133	0xbe0e2381	-0.13880731
134	0xbf020586	-0.5078968
135	0xbf769ac7	-0.9632992
136	0xbf16e1f0	-0.58938503
137	0xbf8f6bfc	-1.1204829
138	0x3ed6f508	0.4198382
139	0xbe0df040	-0.1386118
140	0x3ff7f728	1.9372301
141	0x3f37e83f	0.71838754
142	0xbffb66af	-1.9640712
143	0xbf50a40c	-0.81500316
144	0x3ee2fb21	0.4433222
145	0x3f4fc491	0.8115931
146	0x3ed7d47b	0.42154297
147	0xbf763121	-0.96168715
148	0x3f5e163a	0.86752665
149	0x3f82a82d	1.0207573
150	0x3f667ee2	0.9003736
151	0xbef3f812	-0.476502
152	0xbfa3c0f0	-1.2793255
153	0xbf26ed24	-0.652056
154	0x3de053f5	0.109535135
155	0x3fbd16f6	1.4772632
156	0xbf138eff	-0.5764007
157	0xbf534adb	-0.82536095
158	0x3f951527	1.164708
159	0xbefb9470	-0.49136686
160	0x3fe9336f	1.8218821
161	0x3ef003e8	0.4687798
162	0x3dc12d07	0.094324164
163	0xbf05de95	-0.5229276
164	0xbde38b8f	-0.11110603
165	0xbe262f17	-0.16228901
166	0xc0073e8b	-2.1131923
167	0xbfb6259d	-1.4230229
168	0xbbb763b5	-0.005596603
169	0xbeab85ea	-0.33500606
170	0xbfb600cb	-1.4218992
171	0x3fd364b7	1.6515111
172	0xbf9712e3	-1.1802639
173	0x3f010c90	0.50409794
174	0xbe88c41b	-0.26712117
175	0x3eeaaeeb	0.45836577
176	0x3f583629	0.8445764
177	0x3f122530	0.57087994
178	0x3f0be462	0.5464536
179	0xbee346e3	-0.4439002
180	0xbed3ef98	-0.41393733
181	0x402ae50f	2.6702306
182	0x3edf4a18	0.43611217
183	0xbeeabf72	-0.45849186
184	0x3ef5cc85	0.480076
185	0x3f37ba04	0.7176821
186	0xbf09927b	-0.53739136
187	0x3faec7db	1.3654741
188	0x3dcfa015	0.10137955
189	0x3f4b4bc8	0.7941251
190	0xbf85bb62	-1.044781
191	0x3fad3013	1.3530296
192	0x3f25bba2	0.6473943
193	0x3f10b584	0.5652697
194	0xbf22f7a6	-0.6365913
195	0xbf980d47	-1.1879052
196	0xbe5f1537	-0.21785437
197	0xbf9ae037	-1.2099675
198	0x3ff66de9	1.9252292
199	0x3ee4921a	0.44642717

bias f4 [10]
0	0x3f923361	1.142193
1	0x3f06e079	0.5268627
2	0xbf818373	-1.011824
3	0x3f01964c	0.5061996
4	0x3ec99de2	0.39378268
5	0xbc6cc9c1	-0.014452399
6	0x3d5dfd73	0.054196786
7	0x3f96da7d	1.1785427
8	0x3ed90258	0.423846
9	0x3fa7804e	1.308603

weight f4 [1, 10]
0	0xbfdfc48a	-1.7481854
1	0xbffb6865	-1.9641234
2	0xbfe953b2	-1.8228667
3	0xc01560eb	-2.3340404
4	0x400c93bf	2.1965177
5	0xc07a1664	-3.9076166
6	0x3fff8421	1.9962198
7	0xbf9c6c84	-1.2220616
8	0xbfa39581	-1.278
9	0x3fd49b7a	1.6609948
