model.pth (torch, 10213 bytes, 10 tensors)

hidden1.weight f4 [20, 26]
000000 8c 46 4c bf 0b 70 d3 3f 50 b8 44 bf cb 3c 3c bd
       -0.79795146 1.6518568 -0.7684374 -0.045956414
000010 3d 6f db bd a3 60 4e 3f e2 de da be 53 9c b9 bc
       -0.107145764 0.80616206 -0.4274817 -0.022657549
000020 03 6d 21 bf 7b f2 4c bf b4 8d 00 40 00 f0 dc 3e
       -0.63056964 -0.80057496 2.0086489 0.43151855
000030 b8 68 f3 bd 2a b3 8a 3e 0b 40 70 be ee c1 ca 3e
       -0.11885208 0.27089816 -0.2346193 0.39601082
000040 b8 45 a0 be 5f fb 7f bf dc 7e 02 3e 9b eb bf bf
       -0.3130319 -0.99992937 0.12743706 -1.4993776
000050 dc 2b 3f be 89 aa c3 bf 4a 66 bc 3e aa 4a a8 3e
       -0.18669075 -1.5286418 0.3679679 0.32869464
000060 5c 51 76 3e 1d 54 58 3f e8 ea 06 40 a4 17 c3 bf
       0.24054474 0.84503347 2.1080875 -1.524159
000070 1c 4b 02 40 57 7b dd 3e d0 d0 92 3e d7 06 9c 3d
       2.0358343 0.43258163 0.28674936 0.07618492
000080 fa 9e 9c bf 9d df 2c 3f ac 45 04 3f 91 a5 cf 3e
       -1.2236016 0.67528707 0.5166881 0.40556005
000090 ba 76 fb be 13 9f d3 3e 71 48 ee bd b0 b7 91 be
       -0.4911402 0.41332301 -0.11634911 -0.28460455
0000a0 25 17 c4 3d 7a 51 45 bf e4 74 f0 3e 62 f7 a8 3f
       0.09574727 -0.7707745 0.4696418 1.3200495
0000b0 70 32 ee be 38 2e 2a c0 d4 e3 93 3e ce 4a 33 3f
       -0.46522856 -2.659071 0.28884757 0.7003602
0000c0 6c 69 5b 3e ec f4 11 40 c0 45 09 bc 45 f2 30 3f
       0.21426934 2.2805738 -0.008378446 0.69119674
0000d0 a6 20 d0 3f 45 93 8d bf b0 cd 9a bf 85 6c 9b bd
       1.6259964 -1.1060568 -1.2094021 -0.07589058
0000e0 cc be c4 3c 01 bb 21 3f 3e a9 2e 3f 03 8e 19 3f
       0.02401676 0.6317597 0.68226993 0.5998232
0000f0 af 06 42 be e7 be ab be 7a 06 3f 3e ff 88 d3 be
       -0.18947862 -0.33544084 0.18654814 -0.41315457
000100 59 83 0c 3f 8a ed d0 be 22 10 ac be f4 57 50 3f
       0.5488792 -0.40806228 -0.33606058 0.81384206
000110 4c 42 a4 be fe 18 80 3f 54 2c cc 3e fc 9f d1 3f
       -0.3208183 1.0007627 0.3987757 1.6376948
000120 32 c3 a5 be 9d 75 01 40 5e bb ad 3e f9 33 24 40
       -0.32375485 2.0228035 0.33932012 2.5656722
000130 10 22 10 be 40 54 0c 40 8f 3f b6 3e 97 84 ac 3f
       -0.14075494 2.1926422 0.35595366 1.3477963
000140 d5 e8 01 c0 11 fb a8 be 29 f6 2b be 42 77 a9 bf
       -2.029836 -0.33004048 -0.16793121 -1.323952
000150 28 66 b1 3d 7e c3 1e 3f c0 20 f5 bd 70 96 07 be
       0.08662063 0.6201705 -0.11969137 -0.13240981
000160 9e 6e 4b bf 39 34 02 3f 6e b5 c9 bd 18 87 fa bc
       -0.79465663 0.50860935 -0.09849058 -0.030581996
000170 e7 b5 3e be 7a d0 96 3e 5e eb 59 be db c3 36 bd
       -0.18624078 0.2945593 -0.21281192 -0.044620376
000180 f8 f2 99 be 7d 77 17 c0 f9 33 f5 be 3a 10 d4 3f
       -0.30068183 -2.366668 -0.47891214 1.6567452
000190 26 8b e5 3e 4d 33 5d 3f 00 aa 81 bb 01 3f 32 3f
       0.44832724 0.86406404 -0.003957033 0.69627386
0001a0 bb fc 92 3e fd 98 e2 bf f5 c8 84 3f fa 82 17 3f
       0.28708443 -1.7702938 1.0373827 0.5918423
0001b0 a8 cb 88 3d 8c 91 60 bf 71 a7 a8 bd 2c 20 b8 be
       0.06679469 -0.87722087 -0.08235062 -0.35962045
0001c0 70 2b b7 3d 63 c5 8c bf b6 e9 23 bf 72 da c7 3e
       0.08943832 -1.0997738 -0.6402849 0.39033848
0001d0 0c 02 15 3f 71 49 26 be 89 c9 a4 be 1b 8f b6 3f
       0.5820625 -0.16238953 -0.3218501 1.4262422
0001e0 c8 55 8f 3d 67 98 e5 bf a2 9e 77 be 5e 3a 41 c0
       0.06998783 -1.7937135 -0.24181607 -3.0191875
0001f0 60 55 3f 3d cb 3e 44 3f 4e c1 ea be 8d 9f 15 bf
       0.04671228 0.76658314 -0.45850605 -0.5844658
000200 c0 f0 71 bc 5c c4 8f 3f 38 b7 f0 bf af f2 bc 3e
       -0.014766872 1.1231799 -1.8805914 0.36903903
000210 4e 39 d3 bf 88 a5 b1 3c 4e 21 93 be 14 08 96 be
       -1.6501863 0.021685377 -0.28736347 -0.29303038
000220 e4 b5 e3 be a9 ee 8c 3f e0 07 2b bf 89 33 bc 3f
       -0.4447471 1.1010333 -0.6680889 1.4703227
000230 90 52 a9 3f 64 4e 01 3f 82 95 12 3e a1 db 8b 3e
       1.3228321 0.5051024 0.14314845 0.27316
000240 2b ad e9 bd 36 86 10 c0 b8 d7 d1 3d 7c 2d 71 bf
       -0.11409982 -2.2581916 0.10246223 -0.9421003
000250 66 93 9f 3e 20 e3 5f 40 4a d0 bc 3e 69 32 40 40
       0.31167144 3.4982376 0.36877662 3.0030768
000260 39 27 e9 be e2 64 0b bf 86 6b 83 be 40 72 f8 3f
       -0.45537737 -0.5445081 -0.2566797 1.9409866
000270 4e c7 b1 bf 96 59 4c 3f 51 7b 7e be 94 f4 5f bf
       -1.3888948 0.798242 -0.24851729 -0.8748257
000280 de 54 0a bf b2 af de be 00 9d 44 bd 2d 89 19 be
       -0.5403575 -0.4349342 -0.04800129 -0.14993735
000290 47 53 a5 be 8b 02 64 3f f9 65 5b c0 12 1c 05 be
       -0.32290098 0.8906638 -3.428099 -0.12998989
0002a0 b5 28 3d be 75 6f 47 be f7 f3 4e bd d6 c4 99 bf
       -0.1847256 -0.19476111 -0.05052563 -1.2013195
0002b0 90 c7 08 3e ca 0c 39 c0 a0 9d cf 3c ce 09 84 3f
       0.13357377 -2.8914056 0.025343716 1.0315492
0002c0 66 30 99 3e 8f 75 87 3f 52 6b a2 3e 75 58 6d 3f
       0.29919738 1.0582751 0.31722504 0.927131
0002d0 7c aa ac bd 83 fa 0a 40 37 1f 0b c0 a4 3a 30 3e
       -0.08430955 2.17154 -2.1737802 0.1720987
0002e0 c7 dd 0c bd 4d f7 03 bf 5e 38 31 3e e9 ea 47 3e
       -0.03439119 -0.51549226 0.17306659 0.19523205
0002f0 44 de cd 3e 9a 6e 13 3e a2 7b 3e 3f 80 60 8a bf
       0.40208638 0.1439766 0.744074 -1.08107
000300 08 3d a3 be 73 91 f3 3e b5 7c 75 be 27 a8 e9 be
       -0.318825 0.47571906 -0.23973353 -0.45636103
000310 89 b4 33 3d 28 b6 80 3f 90 9a d1 bc f9 b8 1e 3f
       0.043873344 1.005559 -0.025586396 0.62000996
000320 fe 23 c6 be ac 6c 28 40 04 3e 5c 3e 24 46 99 bd
       -0.38699335 2.6316328 0.21508032 -0.074840814
000330 9a b1 ad be 97 6d 1f bf 8c 9e ec be 18 8d 76 40
       -0.33924562 -0.62276596 -0.46214712 3.8523617
000340 e1 c1 cb 3f dc 84 9f 3f aa aa e5 3e f0 83 29 3e
       1.5918542 1.246242 0.4485677 0.16554236
000350 08 ec 91 be 42 d0 e0 bd 84 e6 8b 3f a0 3f f1 be
       -0.2850039 -0.10977222 1.0929723 -0.47118855
000360 e1 f4 4c 3d 23 7b 19 3f e9 fd 4f be eb d0 33 be
       0.050038222 0.59953517 -0.20311703 -0.17560165
000370 37 0c 2e 3e 23 5c 1e 3f 4d 0e 12 3e 26 a7 9e bf
       0.16996847 0.6185934 0.14263268 -1.239476
000380 2e 5b 03 be 63 99 0d bd ea c6 41 be 6b 69 04 be
       -0.12827751 -0.03457011 -0.18923536 -0.12930839
000390 5c 27 87 be 29 8e 55 c0 fe b6 d3 3e 28 d5 d3 3e
       -0.26397216 -3.3368018 0.4135055 0.41373563
0003a0 10 6c 35 3d 8b 29 f2 bf 66 6e cb 3f de 99 08 c0
       0.04429251 -1.8918928 1.5893066 -2.1343913
0003b0 65 eb 5c bd 06 1b 89 be 22 03 ce be 3b 53 9a bf
       -0.053935427 -0.2677843 -0.40236765 -1.205665
0003c0 91 de 3d 3f 6a 88 92 be 10 ac 5b 3e 11 03 0c bf
       0.74167734 -0.286197 0.21452355 -0.5469218
0003d0 f6 bf 60 3f 5f 5c 9d 3d 5e 4c 8b be 4b c1 58 3e
       0.8779291 0.07683634 -0.272067 0.21167485
0003e0 fc 8e c9 3e c8 a6 be be a8 51 a5 3d bc 4b 89 c0
       0.393669 -0.3723662 0.08072215 -4.290495
0003f0 fc ef f4 bd c4 63 b6 bf ee b2 a7 3e cb 98 09 3f
       -0.11959836 -1.4249196 0.327537 0.5374877

hidden1.bias f4 [20]
000000 5c 5e 9d 3e 49 de 49 bf ba 44 1d be 2a 08 5f be
       0.30736053 -0.78854805 -0.15358248 -0.21780458
000010 26 ce 8e bf 28 e8 c4 bf c8 d9 fa be 77 2a ae bf
       -1.1156662 -1.5383348 -0.4899428 -1.3606709
000020 9e 5a c0 bf 9d 66 d1 be df f9 18 c0 28 2a 66 bf
       -1.5027654 -0.408986 -2.390251 -0.89908075
000030 55 86 4e bf 28 d5 50 bf db 13 a8 be ae e0 1d bf
       -0.80673724 -0.8157525 -0.3282765 -0.6167096
000040 36 d2 72 bf 55 ea 4f 3f be 6f d7 3e 8f fb 5c 3f
       -0.94852006 0.8121694 0.4207744 0.8632135

hidden2.weight f4 [10, 20]
000000 ff de 8d be 0d f3 88 3f c6 14 15 c0 8e 90 b7 be
       -0.27709195 1.0699173 -2.329393 -0.35852474
000010 f3 87 98 3f 2c 17 b7 3d 4e 39 d8 bf 69 0e 27 40
       1.1916488 0.089399666 -1.6892488 2.6102545
000020 73 49 a6 3f 8c f1 e3 be 55 a5 eb be 19 b2 2d c0
       1.2991165 -0.44520223 -0.46024576 -2.7139952
000030 04 39 89 bf f6 9f ad bf 51 86 69 c0 9a 2f 01 40
       -1.0720525 -1.3564441 -3.648823 2.0185304
000040 5e 0e 04 40 83 84 d4 3f 19 ea 02 3d 27 1f 26 c0
       2.063377 1.6602939 0.031961534 -2.5956514
000050 28 22 91 3f d0 ea 78 40 32 7f 20 c0 77 31 fc 3e
       1.1338549 3.8893318 -2.5077634 0.4925649
000060 15 78 4b c0 7e a6 57 c0 51 ba 66 40 24 35 cc 3f
       -3.1792042 -3.3695369 3.6051219 1.5953717
000070 fc 49 56 3f 31 76 41 3f 18 d3 56 be 22 fd b2 bf
       0.8370664 0.7557097 -0.20978963 -1.39835
000080 49 6e ba be f9 46 08 c0 41 27 7e 3f 11 11 fa 3f
       -0.36412266 -2.1293318 0.99278647 1.9536458
000090 45 3b 7e 3f 3a f6 33 c0 a7 7c fe 3e 9c d6 2c 3e
       0.9930919 -2.8119035 0.49704477 0.16878742
0000a0 d6 62 19 40 a2 5c de bf f2 e0 1f 40 14 c5 c8 be
       2.3966575 -1.7372019 2.4981046 -0.3921286
0000b0 b7 25 8e bf 79 54 9c bf b4 71 bb bf a6 98 c5 bf
       -1.110526 -1.2213279 -1.4644074 -1.543721
0000c0 1e 24 da 3f b5 73 58 bf cc 95 c4 3f c3 5c d0 bf
       1.7042272 -0.84551555 1.5358214 -1.6278309
0000d0 31 f1 ac be d2 fd 1b 3f ea f3 15 c0 21 86 dc bf
       -0.33777764 0.60934174 -2.3430123 -1.7228433
0000e0 04 86 8d 3e 59 23 11 bf 23 69 4a 3f 2e 91 1d c0
       0.27641308 -0.5669456 0.79066676 -2.461986
0000f0 03 9f 34 3f e7 65 04 bf 04 fe 13 3f 25 9f 02 3f
       0.7055513 -0.5171799 0.5780947 0.51024085
000100 4b 0d 80 3e f3 ee 04 c0 81 e6 62 40 0c 50 46 bf
       0.25010142 -2.0770843 3.5453188 -0.7746589
000110 98 d2 76 40 fb cc b2 3f f2 bf 36 bf d8 67 31 c0
       3.8566036 1.3968805 -0.71386635 -2.7719631
000120 8f e3 88 be 6b 07 11 c0 3f 3c 80 bf 56 18 06 40
       -0.26736113 -2.2660778 -1.0018386 2.0952353
000130 98 ca b1 3f b3 4c e3 bd c5 89 75 3d 4b da 9e c0
       1.3889952 -0.110986136 0.05994584 -4.964147
000140 79 df 50 40 47 b1 52 40 9d ea a7 bf 4c 1c 84 bf
       3.2636397 3.2920702 -1.3118473 -1.0321136
000150 e2 fb 6d 3f 23 c2 15 3f 6b b8 07 40 f8 a5 32 bf
       0.9296247 0.58499354 2.120631 -0.697845
000160 79 e4 5d bf d5 e1 e6 bf 84 c9 d1 bf 00 f8 08 3f
       -0.86676747 -1.8037668 -1.6389623 0.5350342
000170 5d 7e 98 bf f0 2d 0f 40 1e 9e 51 be 15 ea af bf
       -1.1913563 2.2371788 -0.20470473 -1.3743311
000180 d9 36 1b c0 7d 74 a9 3e 87 a5 55 40 4a 06 9b bf
       -2.4252226 0.33096686 3.338228 -1.2111294
000190 b1 04 95 bf 27 0b 68 3f 25 25 be bf 64 cb de 3f
       -1.1642057 0.9064202 -1.4855086 1.740582
0001a0 12 ab 7c bf a6 89 e8 bd 54 d6 25 3f d4 9a 13 bf
       -0.9869853 -0.11354379 0.64780164 -0.57658124
0001b0 00 92 e6 bf 32 d6 68 c0 2b 8d 1a c0 5f 27 0f c0
       -1.8013306 -3.6380734 -2.4148662 -2.236778
0001c0 8b a4 26 bf 06 b9 0a 40 69 e7 fa bf 5a b4 3e 40
       -0.6509482 2.167543 -1.9601871 2.9797578
0001d0 95 48 51 bf d2 08 9c 3f 0c 7c 04 bf 95 d0 dd 3e
       -0.81751376 1.2190192 -0.5175178 0.43323198
0001e0 53 f2 f3 bf 4f 34 af 3e b9 a2 a3 3f 59 f6 45 c0
       -1.9058326 0.34219596 1.2784034 -3.0931609
0001f0 12 77 11 40 38 a5 39 bf f7 bd b6 bf f9 36 0b 3f
       2.2728925 -0.7251773 -1.4276723 0.54380757
000200 1a 02 8e 3d 9f e2 dd bf bd 71 ee bd 67 61 c2 3e
       0.069339946 -1.7334784 -0.116427876 0.37964937
000210 88 08 7d c0 1d 70 83 bf 75 45 c0 3f ce e6 c9 bf
       -3.9536457 -1.0268589 1.5021197 -1.5773561
000220 17 d1 8e 3a 3c d5 9b be 9c a7 34 40 93 fe 05 3e
       0.0010896054 -0.30436122 2.82273 0.13085394
000230 5f 60 c9 3f 4d 80 7f 3f d1 68 13 bf a3 46 87 3f
       1.5732535 0.99805146 -0.5758181 1.0568432
000240 92 c6 05 40 27 b0 4c c0 8b 3f 06 40 d6 9f 8d 3e
       2.0902448 -3.1982515 2.0976284 0.27661008
000250 86 0d 42 be 7f d8 90 bd fa 09 c0 bf cd 00 f8 bc
       -0.18950471 -0.07072543 -1.5003045 -0.03027382
000260 a3 00 43 be 74 a3 a1 3f a9 1c a1 bf 1d 63 bc 3e
       -0.19043212 1.2628007 -1.2586871 0.36794367
000270 99 dd a6 3f 05 2a c6 3f 94 7a be 3e 34 34 b6 bf
       1.3036376 1.5481573 0.37202895 -1.4234681
000280 61 62 ad be 4d 56 9f 3d f2 6d 8b bf 97 68 b5 bf
       -0.3386412 0.077801324 -1.0892928 -1.4172543
000290 54 0b 4a 3f aa 36 8d 3f 13 84 2f bf 33 f8 d8 bf
       0.78923535 1.1032307 -0.68560904 -1.6950744
0002a0 07 66 3a bd a4 3e 0e bf ac d6 9c bf a3 4c 3a 3f
       -0.045507457 -0.5556433 -1.2253013 0.7277319
0002b0 23 fd 16 c0 6d 0b e3 bf 7a b8 0b bf 38 02 31 bf
       -2.3592002 -1.7737862 -0.54578364 -0.6914401
0002c0 de 1b df bf a5 30 bb 3f 9f 27 3c 40 f1 6b 1c 3f
       -1.7430379 1.462422 2.9399183 0.61102206
0002d0 0f 69 b8 3f 31 d9 24 3f 4e f3 f7 bf e5 a1 ce bf
       1.4407061 0.6439391 -1.9371126 -1.6143156
0002e0 06 0b ae bf 59 fd 50 be b7 f0 2d 3f 37 2f 35 c0
       -1.3597114 -0.20409144 0.67945427 -2.8310068
0002f0 79 b4 26 3f 04 cf 80 c0 c6 c9 bb bf 77 18 4c 3d
       0.6511913 -4.0252705 -1.4670951 0.04982802
000300 aa 14 fc 3f a8 db 7a bf 0d f6 af bf 3b 6e f9 3e
       1.9693806 -0.9799142 -1.3746964 0.48716912
000310 2c 22 23 40 c9 96 49 bf 68 ba 6d be 7f fd 28 3f
       2.5489607 -0.78745705 -0.2321564 0.66011804

hidden2.bias f4 [10]
000000 22 33 b0 be 85 a7 a7 be 89 23 0f 3d 53 82 5f 3f
       -0.3441401 -0.32744995 0.034946 0.87308234
000010 a9 d4 ee bf ae a7 5f 3f 35 28 95 3e 2d 7d d1 3e
       -1.8658649 0.87365234 0.29132238 0.40915814
000020 5e 11 0a 40 58 f5 b1 bf
       2.15731 -1.3902998

hidden3.weight f4 [1, 10]
000000 56 02 3c c0 d0 01 f1 3f 41 4e 0c 40 70 32 f9 bf
       -2.9376426 1.8828678 2.1922762 -1.9468517
000010 2b 07 e2 bf fb 75 fc bf 56 42 99 bf 82 5f bd 3f
       -1.7658437 -1.9723505 -1.1973369 1.4794772
000020 ad 29 97 bf bf 51 14 c0
       -1.1809593 -2.3174894

momentum_buffer f4 [20, 26]
000000 33 28 18 3d a6 eb 80 be 11 83 2f 3e 30 44 3d 3d
       0.037147712 -0.25179785 0.17139842 0.046207607
000010 f3 be 66 3d e1 cf c6 3d cb 68 83 3d 1f 50 69 3d
       0.056334447 0.097076185 0.06416472 0.056961175
000020 03 f4 84 3d fb aa 7b 3d 3e 0a bd 3d 42 78 15 3d
       0.06491854 0.061442357 0.09230469 0.03649164
000030 0b 7c 32 3d 5c 4f 9b 3d c8 16 1f 3c ae 85 68 bc
       0.043575328 0.07583496 0.009710021 -0.014192028
000040 00 00 00 00 ba 6c af 3d 00 00 00 00 96 d2 b7 bd
       0.0 0.0856566 0.0 -0.08975713
000050 00 00 00 00 32 2c e9 3b 00 00 00 00 dc ba da 3d
       0.0 0.007115864 0.0 0.10680172
000060 00 00 00 00 4b 42 40 bd 7a b7 80 be c1 37 53 3d
       0.0 -0.046938222 -0.25139982 0.051566843
000070 04 7f 85 3e 2f d9 2f 3c af 74 68 3c 47 8b c2 3c
       0.26073468 0.010732933 0.014187976 0.023748053
000080 57 eb 84 3c f0 01 6c 3c 07 79 86 3c ad cd c7 3c
       0.0162255 0.014404759 0.016415132 0.024390066
000090 1a 8b 06 bd 21 76 18 3c 0c 89 34 3c 84 81 9d 3c
       -0.0328475 0.009305508 0.011019003 0.019226797
0000a0 bd ea 20 3b 9e 84 7a 3e 00 00 00 00 c0 ab 4d bb
       0.0024553977 0.24464652 0.0 -0.0031382889
0000b0 00 00 00 00 3a 2a 80 3e 00 00 00 00 a9 ec 2c 3e
       0.0 0.25032216 0.0 0.16887154
0000c0 00 00 00 00 89 a7 22 3e 00 00 00 00 b0 0c b9 3d
       0.0 0.15884222 0.0 0.09035623
0000d0 78 d9 ff 3d 60 72 aa 3d 89 47 1d 3e e2 8c df 3b
       0.12492651 0.083225965 0.1535932 0.0068222145
0000e0 b2 c0 fb 3b f2 c1 43 3c f4 56 1c 3c d2 66 05 3c
       0.007682883 0.011948096 0.009542216 0.00814219
0000f0 df ce 17 3c 5a 58 8e 3c 7a 9d 91 3c 4b 94 aa 3b
       0.0092656305 0.017376114 0.017775286 0.005205666
000100 44 18 cc 3b 67 87 31 3c e1 ec b5 3a 88 f4 88 3c
       0.0062284786 0.010835505 0.00138798 0.016718164
000110 00 00 00 00 4c 0c 1e 3b 00 00 00 00 73 8b bf bd
       0.0 0.0024116216 0.0 -0.0935277
000120 00 00 00 00 13 40 cb bd 00 00 00 00 fd 9d 2f be
       0.0 -0.099243306 0.0 -0.17150111
000130 00 00 00 00 aa 35 1c 3c 30 5d 54 3e 38 51 26 bc
       0.0 0.009534279 0.20738673 -0.0101512
000140 cd df 01 bd 0f c2 10 bc 51 9a 26 bc fa e0 a1 bc
       -0.031707574 -0.00883533 -0.010168628 -0.019760597
000150 a2 1b 3f bc 54 99 2c bc dd b9 44 bc 98 40 de 3d
       -0.011664303 -0.010534603 -0.012007204 0.10852164
000160 99 10 c1 bc 12 00 da bb f6 09 04 bc 8d 20 63 bc
       -0.023567485 -0.0066528404 -0.0080590155 -0.013862741
000170 f4 65 eb ba 27 71 cb be 00 00 00 00 d4 c9 49 3d
       -0.0017959462 -0.39734766 0.0 0.049264744
000180 00 00 00 00 fb e4 70 be 00 00 00 00 53 68 4f be
       0.0 -0.23524849 0.0 -0.2025464
000190 00 00 00 00 72 0e 51 bd 00 00 00 00 7e ca 34 be
       0.0 -0.051039167 0.0 -0.1765537
0001a0 1e 80 25 3e df 51 da 3d 68 90 9f be dc ba ef 3b
       0.16162154 0.10660147 -0.3116486 0.0073159765
0001b0 7b f5 f2 3b 5f 51 67 3c ce ec 0a 3c 74 a8 f6 3b
       0.0074145175 0.0141185215 0.00847931 0.0075274054
0001c0 d6 8e 0c 3c 7c a4 b9 3c ee e9 8d 3c c7 b2 9d 3b
       0.008578977 0.02266144 0.01732346 0.0048125717
0001d0 83 ac bc 3b 5c 9f 24 3c 0a 30 a8 3a ed 0f f1 3d
       0.0057578697 0.01004776 0.00128317 0.11770616
0001e0 00 00 00 00 ae c7 bf 3c 00 00 00 00 63 42 20 be
       0.0 0.023410644 0.0 -0.15650325
0001f0 00 00 00 00 74 9a 40 be 00 00 00 00 30 73 7f bd
       0.0 -0.18808919 0.0 -0.06236571
000200 00 00 00 00 38 77 2c be bc ed d7 bd 2e a0 32 3f
       0.0 -0.16842353 -0.10543391 0.69775665
000210 12 86 27 bf b8 a4 02 be 99 1d 19 be 1c 0d 92 be
       -0.6543895 -0.12758148 -0.14952697 -0.28525627
000220 64 f6 2e be 86 b9 1b be 91 76 31 be b3 94 c1 be
       -0.17086178 -0.1520749 -0.17330386 -0.3780876
000230 4e 2d b6 be 48 0f c9 bd cd 41 ee bd e5 e3 4f be
       -0.3558144 -0.09817368 -0.11633644 -0.20301779
000240 ce 5d d4 bc 9d 82 73 be 00 00 00 00 b6 4c 62 be
       -0.025923636 -0.23780294 0.0 -0.22099575
000250 00 00 00 00 9d dc 9d 3e 00 00 00 00 4b eb f7 3e
       0.0 0.30832377 0.0 0.48421702
000260 00 00 00 00 a8 0b d2 3e 00 00 00 00 ac 1b 7d 3e
       0.0 0.41024518 0.0 0.24717587
000270 d0 f9 46 3e 89 a3 a7 be 35 07 01 3f ed 8a 9a 3d
       0.19431233 -0.32741955 0.5040162 0.07546029
000280 58 81 b5 3d a1 d4 2c 3e eb 8c cf 3d 9c 45 b8 3d
       0.08862561 0.16877986 0.101343 0.08997652
000290 64 03 d2 3d e9 31 25 3e dc 0a 54 3e f4 9f 6b 3d
       0.10254553 0.1613232 0.20707268 0.05752559
0002a0 d6 f7 8c 3d 05 5e f6 3d 2a 4c 7b 3c bc e2 f7 3d
       0.068832085 0.120296516 0.015337983 0.12103793
0002b0 00 00 00 00 de 82 e9 3d 00 00 00 00 c4 18 2e be
       0.0 0.11401914 0.0 -0.17001635
0002c0 00 00 00 00 ac 4f 2f 3d 00 00 00 00 96 96 ed 3d
       0.0 0.04280059 0.0 0.116009876
0002d0 00 00 00 00 e0 c3 30 bd 59 1f a3 3e ce 18 2c be
       0.0 -0.04315555 0.31859854 -0.16806337
0002e0 e3 cb e5 3e 97 70 3d 3d a8 91 5d 3d 46 70 d4 3d
       0.44882116 0.046249952 0.054093987 0.10372977
0002f0 cb c8 7b 3d 9d e4 61 3d 5d bc 80 3d 04 78 f2 3d
       0.061470788 0.055149663 0.062859274 0.118392974
000300 5d 18 02 3e aa 52 12 3d b1 ce 2c 3d 82 c3 96 3d
       0.12704606 0.035723366 0.042189304 0.07361509
000310 5c 07 1a 3c 67 5b b0 3d 00 00 00 00 5c c6 ab 3d
       0.009401169 0.086111836 0.0 0.083874434
000320 00 00 00 00 a5 49 63 be 00 00 00 00 21 55 b5 bc
       0.0 -0.22196062 0.0 -0.02213532
000330 00 00 00 00 00 b5 8a 39 00 00 00 00 9f 40 e5 bc
       0.0 0.00026456267 0.0 -0.027984915
000340 33 9f c6 bc a1 cc fe be fd 7a a0 3d 4f 00 b8 3c
       -0.024245834 -0.49765494 0.07835958 0.022461085
000350 61 ce d8 3c b6 e2 72 3d 14 74 fd 3c e6 1c dc 3c
       0.026465597 0.05929824 0.03093914 0.026869249
000360 13 23 fb 3c d1 dc f3 bd e0 9a 4d bd 29 f9 90 3c
       0.030656373 -0.11907352 -0.05019653 0.017696934
000370 95 61 a8 3c 02 a1 13 3d 64 15 96 3b 76 25 9e 3d
       0.020554343 0.03604222 0.0045801867 0.07721989
000380 00 00 00 00 18 27 81 bd 00 00 00 00 b0 97 dc ba
       0.0 -0.06306285 0.0 -0.0016829874
000390 00 00 00 00 52 1b b6 3d 00 00 00 00 88 c8 10 be
       0.0 0.0889193 0.0 -0.14138997
0003a0 00 00 00 00 7e 80 29 3e 81 43 ae bd 31 33 1f 3e
       0.0 0.16552922 -0.08508969 0.15546872
0003b0 26 d2 53 3d 99 f4 4d 3c c9 a3 79 3c 8b f2 f6 3c
       0.051714085 0.012570524 0.015236803 0.03014495
0003c0 91 e0 8e 3c 33 8e 75 3c 7e bb 8b 3c 9a 28 03 3d
       0.017441066 0.014987516 0.017057177 0.032021143
0003d0 50 0d 00 3f 98 91 2c 3c 62 d9 3b 3c 5a 56 a3 3c
       0.50020313 0.010532759 0.011465402 0.019938637
0003e0 99 6f 27 3b 5e e8 46 be 00 00 00 00 00 99 53 3e
       0.0025548695 -0.19424579 0.0 0.20663834
0003f0 00 00 00 00 24 06 40 be 00 00 00 00 a4 6f 09 bf
       0.0 -0.18752342 0.0 -0.53685975

momentum_buffer f4 [20]
000000 c8 5a 02 bf 37 da 03 be f9 10 95 bd 8d e1 c0 3d
       -0.5091977 -0.12876211 -0.07278628 0.094180204
000010 5a cf 89 bd 5c 02 ae 3f 9a e8 4d bf b2 6a fc be
       -0.06729002 1.359447 -0.80433047 -0.49300152
000020 95 f3 75 be a7 31 09 be 6e 3d d2 3d cd 8f 84 3b
       -0.240187 -0.13397847 0.10265623 0.0040454627
000030 a4 c0 c1 be dc 47 22 3f 0a 34 05 be 94 38 26 3c
       -0.37842286 0.633909 -0.13008133 0.010145325
000040 be 70 1a bf 66 86 36 3e 48 35 8d bd 08 87 37 3f
       -0.6032828 0.17824706 -0.06894928 0.71690416

momentum_buffer f4 [10, 20]
000000 d3 b8 69 bd 16 03 5b be dd dc b3 3c 64 43 13 bd
       -0.057061028 -0.21387896 0.021955902 -0.03595294
000010 62 4f df bd d4 b9 4b bd 33 39 96 be e3 a8 30 be
       -0.10903813 -0.049737766 -0.29340515 -0.17251925
000020 dc e0 15 be 7a ea 54 bd f1 43 d8 bd 43 2e b7 3d
       -0.14636558 -0.051981427 -0.10559834 0.089443706
000030 a3 6b 62 be 3e a3 1b be 90 29 4a bd 00 01 8d 3c
       -0.22111373 -0.1519899 -0.049356043 0.01721239
000040 3d 79 c7 be fe 39 f3 bd 0f 1b 11 be f0 30 68 bd
       -0.38959685 -0.118762955 -0.14170478 -0.056687295
000050 e1 09 30 3e ce 29 8a 3d 77 e8 83 be 46 86 e5 be
       0.17191269 0.06746255 -0.25763294 -0.44829005
000060 7b af ec 3b 42 0d 75 be 06 12 e0 be c1 36 94 bd
       0.0072230673 -0.23930839 -0.4376375 -0.07237006
000070 45 49 1e 3f 2d 12 cd 3d e4 c0 c7 3d 70 e0 3b 3e
       0.6183055 0.100132324 0.09753588 0.18347335
000080 f6 53 07 be 3a c1 d5 3e 5e 7b 1e 3c d2 5b 8a be
       -0.13215622 0.41748983 0.009672968 -0.27023178
000090 3b 79 18 3e 01 e6 06 bd 23 d6 b1 be 6a 56 22 bf
       0.14889996 -0.032934193 -0.34733686 -0.6341311
0000a0 d1 02 dc 3e bd 60 cb 3d b2 b6 b2 bc 5e ae 9b 3c
       0.429709 0.09930561 -0.021815632 0.019004043
0000b0 61 2a 8a bc 08 40 50 bb ff 8b 2e 3b 3a a5 db b7
       -0.016865911 -0.0031776447 0.0026633737 -2.6183774e-05
0000c0 52 76 24 3f ff 5d 0c 3e 66 3d ae bb 94 34 7a 3e
       0.6424304 0.13707732 -0.005317378 0.2443412
0000d0 83 47 ed 3b 5a 16 dd 3e de d0 ad 3c ac af f1 3c
       0.007241191 0.43181115 0.02121776 0.029502712
0000e0 20 07 a8 3e fa 88 4d bc 24 83 b2 3e 31 eb 59 3e
       0.32817936 -0.012544865 0.34865677 0.21281125
0000f0 de 0d b3 be 86 5c 82 be 3b b5 e7 3d 0f ea e9 3d
       -0.34971517 -0.25461215 0.11313864 0.11421596
000100 a2 90 05 be c2 8a 6e bd 42 84 17 be aa 13 24 be
       -0.13043454 -0.0582378 -0.14796546 -0.16023126
000110 0f 56 11 bf 6e 4b d6 bd d8 1e 0a be ab 89 64 be
       -0.5677194 -0.10463606 -0.13488328 -0.22318141
000120 be c0 ae bd 15 f4 e5 be 73 cd 63 bd 82 c4 b4 bd
       -0.085328564 -0.44912782 -0.055615854 -0.088265434
000130 3e 4f fa be 28 01 91 bd 6b fe 34 be 2d 5f dd bd
       -0.48888582 -0.07080299 -0.17675178 -0.10809169
000140 8b 55 89 be ef 2d ea bd 31 61 8b 3e c7 86 a8 3e
       -0.26823077 -0.114345424 0.2722259 0.32915327
000150 5c 4f 6c bd 21 65 f4 3d 75 91 75 3e 30 65 0d bb
       -0.05769287 0.11933351 0.23981269 -0.0021575205
000160 4a a7 0d bf 7c f4 77 be 7a 30 69 bd c2 6b 8b bd
       -0.5533339 -0.24214357 -0.056930996 -0.068076625
000170 42 ae 47 3e 30 52 ba be c3 71 3f be d8 df d2 bc
       0.19500068 -0.3639083 -0.1869574 -0.025741503
000180 12 d7 9f be 72 7b b3 bd 64 1b 78 3d 10 81 e8 3c
       -0.31218773 -0.0876378 0.060572997 0.028381854
000190 f2 1a 7d 3e 6c be 4f 3e 97 d9 40 3f d0 f6 21 3f
       0.2471731 0.20287484 0.75332016 0.6326723
0001a0 7d 36 49 3c b8 e9 4b 3f 11 cb 8c 3f 9c ce f3 3e
       0.012281057 0.796535 1.0999471 0.47618568
0001b0 91 0f c7 3d 49 fc 91 3d 2c de da 3c b7 97 37 3d
       0.09719766 0.07128198 0.026717268 0.04482242
0001c0 e7 c7 d0 3e 52 65 33 3e 4d c8 17 3e 71 d3 05 3f
       0.40777513 0.1751912 0.14822502 0.5227576
0001d0 a4 1d be 3e f2 06 18 3e 8c c8 66 3f 63 d2 b1 3f
       0.3713199 0.148464 0.9014976 1.389233
0001e0 62 9e 2d bd f0 0a 16 bd 48 2f 1d 3e ef 31 db bb
       -0.042387374 -0.036631525 0.15350068 -0.006689302
0001f0 c8 ea 36 3e 75 4d 14 3d 3f 8a 0d 3d ef f9 cb 3d
       0.17863 0.03620668 0.03455567 0.099597804
000200 c8 2f f5 bd 1f f2 1a 3e 78 4a 07 bb ff 5e 2c 3e
       -0.11972004 0.15131424 -0.0020643752 0.16833113
000210 15 62 2a bc 06 90 94 bc f9 49 3f 3e 57 d3 c8 3b
       -0.010399361 -0.018135082 0.18680562 0.0061287093
000220 48 d9 04 be 9d 16 89 3e 5d be f6 bd fc a7 50 bc
       -0.12973511 0.26775065 -0.12048028 -0.012735363
000230 ad d9 0a 3e 4e 59 ad 3d 4b c2 eb be 34 83 b6 be
       0.13559599 0.08464299 -0.4604667 -0.35646975
000240 f6 94 4c be e7 5c 6c be fb 02 cd be 90 71 ba bd
       -0.19978699 -0.23082314 -0.40041336 -0.091036916
000250 cf 6b cf 3e ba 9d 0c be 01 1a a3 3d fe b2 dc 3c
       0.4051194 -0.13732043 0.07963944 0.026940819
000260 99 20 d0 bd be cd 92 3e 72 a7 6a be e9 6a 70 be
       -0.101624675 0.28672594 -0.22915438 -0.23478283
000270 b4 ca 27 3e c0 28 9b be f2 0c 84 be 6b 47 f8 be
       0.16385919 -0.30304527 -0.25791126 -0.48491988
000280 73 1e a5 3d 72 c5 a9 3c db 41 c4 3e 88 7d 80 3e
       0.08062448 0.020724032 0.38331494 0.25095773
000290 88 05 15 3d 53 8f e6 3e 32 7c 18 3f 16 40 6e 3e
       0.036382228 0.45031223 0.59564507 0.23266634
0002a0 6f 66 95 bc db e1 d1 3d 5c 40 f4 b9 0f 5b 8f bd
       -0.01823732 0.10248157 -0.00046587258 -0.0699979
0002b0 83 84 2c 3e 94 37 b0 bb d8 4a 84 3e 82 dd 6e 3e
       0.16847424 -0.005377719 0.2583835 0.23326686
0002c0 cc 20 c5 3d 3a ec 80 3e 8f bc c3 3e f4 a0 22 3f
       0.09625396 0.25180227 0.38229796 0.63526845
0002d0 00 8b df be 7b 0e 51 be f2 54 a2 3b 7a 5f ba bd
       -0.43660736 -0.2041568 0.004953974 -0.09100242
0002e0 59 28 78 bd 41 4f 9f 3c 52 05 5b bd e3 ca 0d be
       -0.060585354 0.01944697 -0.05347187 -0.13846926
0002f0 e9 de 4e bf de 7e df bd be 7c 0a be 75 0f 7d be
       -0.80808884 -0.1091287 -0.13524148 -0.24712928
000300 02 2f 4c be 14 7e 15 bf ef 80 b0 bd 10 5e 2d 3e
       -0.19939807 -0.58395505 -0.08618342 0.16930413
000310 87 14 87 be 7e 40 82 bd d7 05 47 be 68 a9 6a 3e
       -0.2638285 -0.06359957 -0.19435821 0.22916186

momentum_buffer f4 [10]
000000 23 b7 df bd f9 f9 af bd ad 67 b1 3d b1 93 e8 bd
       -0.109236024 -0.085926004 0.08662353 -0.11356295
000010 cb 83 08 bd 5e 3f a7 3e 21 f5 92 3c 1c ed ef bd
       -0.033328813 0.32665533 0.017939152 -0.11715147
000020 fe 80 1e 3e 8b 37 e6 bd
       0.15478894 -0.11241063

momentum_buffer f4 [1, 10]
000000 52 5a 8b 3e 0d f1 fe be a1 cc 28 3f fb df 17 3f
       0.27217346 -0.49793282 0.6593724 0.5932614
000010 62 9a 6f 3e 26 c7 4f bf 28 8e b5 be d8 48 93 3e
       0.23398736 -0.8116325 -0.3546002 0.28766513
000020 9d f6 72 be 66 52 3e bd
       -0.23726888 -0.0464653
