model.pth (torch, 6215 bytes, 5 tensors)

weight f4 [20, 26]
00000000: 645b 9fbe 0d01 fabd 1e04 f73e bf5d e7be
00000010: 53ab be3e 1411 da3e 4f25 e9be a982 8d3d
00000020: 52b5 33bd 2b69 8e3e 04f8 49be fe96 57be
00000030: 4713 cdbe 5f2d 0e3e c950 2b3b 4106 ba3e
00000040: bbf2 76be f32a cb3e 5c37 d13e 6d50 423f
00000050: a4c1 97be 5a00 2bbf 4e28 e43e 4a94 583e
00000060: dcf2 783e ba0d 9bbd c36b 523e ff39 9c3e
00000070: edd3 ebbe 9d71 d3be 9a9e c83e 427b 0c3e
00000080: 6fe6 6dbe 2c06 e1be 32b3 6ebe 9de0 7f3e
00000090: 6f7c 76bb 86c5 bfbc f48c a63e 45e6 0b3e
000000a0: 3d50 96be 3314 b33e 4ef6 babe 08f0 303e
000000b0: 25df 8bbe 126f 103e ccc1 ffbd a8a9 2bbf
000000c0: eecb da3e a5b6 a4bd 6229 d83e da9a 46bf
000000d0: c5f5 aa3c b3da 963e 4bc7 013f f973 29be
000000e0: bf2a 843e 9a00 723e fc88 a4be d3b5 a13e
000000f0: 623b f4be 8d9b 02be e036 fb3c f7d9 89be
00000100: cb02 9dbe beb2 cebe c0af 903e 9d31 92be
00000110: 76ad b73e 37a2 1abe 3a58 e63e 8b8e 2dbf
00000120: 4856 8c3d 41d3 713e acfa 223e ba41 0fbf
00000130: 40ec da3c 7463 c23d 065f f93d 75fb cfbe
00000140: 6d65 803e b569 ec3c 9fe4 a0be 6c8d 67be
00000150: 7329 d13e 2bc3 72bd 3a6c 46bd 1426 bb3d
00000160: 0ddf 1bbe 6756 86be 1d75 923e af05 a2be
00000170: e809 d83d 0d37 573e d840 9d3e 7c7c 00bf
00000180: 6328 71be b6c8 de3d adee 84be 4f53 3cbf
00000190: febb 1ebe 56c6 48bf 700f 553d 6dc7 4dbd
000001a0: 8dc0 88be 94ad 883e c5fa f2be f980 9c3e
000001b0: 4ffe be3e d34b c5bd 863f de3e 502a a5be
000001c0: 0d56 553e 52bb a43e 0200 22bf 1b75 29bd
000001d0: 6abf 8d3d 5a13 4a3e 1cd6 afbe df45 173e
000001e0: f0c2 38be 99ee 883e 9f87 e2be 14df 3bbf
000001f0: 5c27 063e 2d48 763e 9888 5e3e cb79 d3bd
00000200: a079 9e3d 4d7c 3e3e 4867 a53d cc1f 333f
00000210: 86f9 b3be 29b9 95bd c5d8 f43d 4d8f 6d3d
00000220: fa56 1fbe 6bd7 4b3d 10a2 d83d 030b 6138
00000230: d295 cf3e 3005 b23e d09d c3be 3a24 d0be
00000240: b11c 7d3e 7af5 833e d480 a13e 9055 71be
00000250: d210 9c3e a96a 03bf d622 c73e 6581 8e3a
00000260: a007 663e 8a51 3c3e 7b4a d2be 5a5f 2a3e
00000270: 76ca 213e e398 a03e 9dc1 d3be 5667 a03e
00000280: 895f a4be eaca 7abe 77f3 a73e 0aa4 69be
00000290: 6a46 b33e c3de 32be ba60 a0bd f4aa cc3e
000002a0: f9fa dfbe 3449 c63e 5db1 f2be 34a4 aa3a
000002b0: 1e2c d43e 94ee 00be 547a ab3e cf31 8a3e
000002c0: 6c88 adbd 3c53 113e 04c4 f33e 8cf4 d0be
000002d0: 5886 c4be d5d0 b53e b0af 52bf 9fc4 fe3e
000002e0: b4bb 163f c6dd 19be 4c6c 6bbe 2c13 443d
000002f0: 8af5 633d 1429 e8be 209f c93e 151b b8bd
00000300: c188 eb3e 1592 f33e 13b3 de3c 6578 0c3e
00000310: 42f2 13be a55d f53e f47e f53e ea12 833e
00000320: 6403 8abe 2b8d 4b3e 689d 5dbe 0846 e1be
00000330: d286 813e 4750 86be a8f3 93be f84b 7dbe
00000340: 441e 073f a310 69bf fda6 11bf b926 6cbe
00000350: d3b3 353e 9a6d 653e 63c9 823e 7d9e e43d
00000360: 0640 0d3e 5f03 a63e 6b55 b73e d6ec 073c
00000370: 7e92 9fbe 8be7 7dbe bb06 b1be 6a25 55be
00000380: 813a adbe 82e5 ca3e fa85 d23e 9a41 62be
00000390: 8ccc b33e 99e3 fabc c0ca 8bbe 2032 0cbc
000003a0: 4388 cfbe 094e efbe 9c16 183e f687 553e
000003b0: 5a55 c83e aaa8 953e 7738 93be ea44 f5bc
000003c0: cca5 e03e 54d3 efbe 7ad0 133f b86c 243d
000003d0: bba5 b23e c859 d83d a928 39be 3dc4 c83d
000003e0: 4d49 cbbd b4f3 1fbe 8cd8 a13e 3d9a c83e
000003f0: 21ff 8cbe 105f 0e3d 603d 56bd 5c1d 8a3a
-0.31124413 -0.12207232 0.4824533 -0.4518871 0.37240085 0.42591155 -0.45536277 0.06909687
-0.043874092 0.27814612 -0.19723517 -0.21053693 -0.4005377 0.13884495 0.002614068 0.36332896
-0.24116032 0.39681205 0.40862548 0.7590397 -0.29639924 -0.6679741 0.44562 0.21150318
0.24311393 -0.075709775 0.2054892 0.30512998 -0.46060124 -0.41297618 0.39183503 0.13718894
-0.23232435 -0.4395002 -0.23310545 0.24988027 -0.003761079 -0.023409616 0.32529414 0.1366206
-0.29358092 0.34976348 -0.3651604 0.17279065 -0.27318683 0.1410487 -0.12488136 -0.6705575
0.4273371 -0.08042649 0.42219073 -0.77580035 0.020869145 0.2946373 0.5069472 -0.16548146
0.25813863 0.23633042 -0.3213576 0.31584033 -0.47701555 -0.1275465 0.030665815 -0.26924106
-0.30666193 -0.40370744 0.28259087 -0.28553477 0.35874528 -0.15100943 0.44989187 -0.6779563
0.06852394 0.23615743 0.15915936 -0.55959666 0.02672398 0.094916254 0.121763274 -0.40621534
0.25077382 0.028858999 -0.31424424 -0.22612542 0.40851936 -0.059268158 -0.048443057 0.09138122
-0.15221806 -0.26237795 0.28604975 -0.3164496 0.105487645 0.21017094 0.30713534 -0.5018995
-0.23550563 0.10878126 -0.25963345 -0.7356462 -0.15501401 -0.78427637 0.052016675 -0.050239015
-0.26709405 0.2669493 -0.47456947 0.30567148 0.37303397 -0.09633603 0.4340784 -0.32258844
0.20833607 0.32174164 -0.6328126 -0.041371446 0.06921275 0.19733945 -0.3434304 0.14772747
-0.18043113 0.26744536 -0.44244096 -0.73387265 0.13100952 0.2405097 0.21731794 -0.103259645
0.07738042 0.18602104 0.0807634 0.69970393 -0.3515131 -0.07310707 0.11955408 0.05799799
-0.15560523 0.049765985 0.10577786 5.3654436e-05 0.4054399 0.34769583 -0.3820634 -0.4065264
0.24717976 0.2577322 0.315436 -0.23567796 0.30481583 -0.51334625 0.38893765 0.0010872303
0.22463846 0.1839048 -0.4107245 0.16637936 0.15799889 0.31366643 -0.41358653 0.3132884
-0.32104138 -0.24491468 0.32802936 -0.22816482 0.3501466 -0.1746779 -0.07830949 0.39974177
-0.43746164 0.38727725 -0.47400942 0.0013018907 0.4143991 -0.1259101 0.33491766 0.26991126
-0.08473286 0.14191908 0.47610486 -0.40811574 -0.38383746 0.3551089 -0.8229933 0.49759385
0.5888016 -0.15026006 -0.2299053 0.047869846 0.055654086 -0.4534384 0.39379215 -0.089895405
0.46002772 0.4757239 0.027184999 0.13717802 -0.14447883 0.47923008 0.4794842 0.25600368
-0.26955712 0.1987807 -0.21642077 -0.43998742 0.25298172 -0.26233122 -0.28896832 -0.24736011
0.52780557 -0.9104101 -0.5689543 -0.23061647 0.17744379 0.22405091 0.2554427 0.11163042
0.13793954 0.32424447 0.35807356 0.008296212 -0.31166452 -0.24795358 -0.34575447 -0.20815054
-0.33833697 0.39628226 0.4111784 -0.22095338 0.35116994 -0.030626105 -0.27303123 -0.008556873
-0.40533647 -0.46739224 0.14852375 0.20852646 0.39127618 0.29230243 -0.28754017 -0.029940087
0.43876493 -0.46840918 0.57739985 0.040142745 0.34892067 0.105639994 -0.18081917 0.098030545
-0.099260904 -0.15620309 0.31610525 0.39180174 -0.27538398 0.034758627 -0.052304626 0.0010537314

bias f4 [20]
00000000: f1aa 0e3d e697 a3be 0583 0f3e b9a3 38be
00000010: 5343 9f3e fda5 463e c7cc 14be ba3d 403d
00000020: 3878 ad3c e88e 23be 69f8 dcbe 2a5a 0abf
00000030: a360 f63c ad86 6fbd d48b 923e 194e 95be
00000040: 4761 06be 0015 a6bd 8b68 02be d9b9 d63b
0.03483099 -0.31951827 0.14014824 -0.18031205 0.31106052 0.19399257 -0.14531241 0.046933867
0.021175489 -0.15972483 -0.43158272 -0.5404383 0.030075377 -0.058478046 0.28622305 -0.29161146
-0.13123046 -0.08109474 -0.12735192 0.0065529165

weight f4 [10, 20]
00000000: 909e 533c 277e 093f 9b86 1bbf 6a0d e83c
00000010: e858 3ebf ba4c 1ebe c39b db3e 1b5d 863e
00000020: bac9 113f 0902 04be 7c0c d53a 53bb c4be
00000030: 8dfc 8abe 2a57 8dbe 2ce1 a4be 101b 0a3f
00000040: 8abb c63e 6901 f0be ca69 f5be f0f8 00bf
00000050: eb05 223f ec4d 91be 9c38 c2bd daa1 02bf
00000060: 5724 843e 3f0b bbbe bde4 91bc 269e 383e
00000070: 3cdf dbbe da3d 94be b4c5 0bbe 695b 9ebe
00000080: e693 81be 48e0 80be 1ef5 33be 3361 b53c
00000090: 13fd fa3e 88a6 093f 35b9 1f3d 313f d93e
000000a0: 1cfc 1cbe db2a 513e 57b4 c4be aed2 4cbf
000000b0: 667b 443f 0c39 a33e 32a6 a2be f385 5dbf
000000c0: c8a3 533f 5f07 41bf a811 20bf 1366 5d3e
000000d0: 0d11 843d 50cf 3a3e 4982 a4be 68a1 033f
000000e0: 35cf 14bf 197b 073f d4a2 453f 7060 10bf
000000f0: 3110 f63d a78c e43e 7519 a53d 7b10 a03c
00000100: 87b1 16bd 47ac c7be 37fb 933e e58d a33e
00000110: 86d8 943d d249 fdbd 0db4 f53e e163 d43d
00000120: 636d f6bd 0c9f 15bf 79ec f4be 2553 c33e
00000130: c7de 983e ff43 423e 51fc f3be 2250 eabd
00000140: 22ac 663e 32e0 08be 827b ecbe f287 523f
00000150: b463 603e 0df7 a3bd 21ee 2b3f 99b2 6e3e
00000160: 22d6 01bf 699c a33e 26e4 11bf 8e8e 043f
00000170: 39dc 24bf f5e4 d53d f53f 8fbe 922a 36be
00000180: ae8b 183f 87de 2c3e 2c8e 81be 1d60 d73e
00000190: e81e c13e f9aa 333f f140 4abe 584b 8fbe
000001a0: 0119 193f 7029 36bf d2ac 203e 5980 dfbe
000001b0: 9aab 133f 95a9 f43e 8356 17bf 3d83 3abf
000001c0: d67f b3be b626 c93c ba85 c43e b594 3bbe
000001d0: d29f 57bf 1be6 b7be 182f 76be 1ced 5c3e
000001e0: abc7 023f b096 8c3e b44f 6c3e cfac a1be
000001f0: 8d85 fd3a 44af 7c3e adfd a1be d35d 823c
00000200: 080a 793e f532 1a3f 75e9 0b3e ad4f 61bf
00000210: dbd9 963e 8ecb 0cbf 2cc0 81bd f361 68be
00000220: 641d 83be fa9f 1f3e 98c5 913e 437c 2f3e
00000230: 3e40 30bf 2b60 37bd d1f7 e7be eebc 683e
00000240: a418 fc3e 5749 fc3c 95e3 b23d 8851 cc3e
00000250: 5fac fe3e 9013 6dbb cccb 483d 42a4 2a3f
00000260: 73d5 0c3e 205c e93e ff2f 223e 1ac2 43bf
00000270: 60e2 af3d 5924 26bf 39bf 803e c775 4a3f
00000280: 71e6 f23e f834 b93e 151c 50be bbae babe
00000290: d7f7 5f3e 113e 533e 504f c8be 97e0 35bf
000002a0: ecc7 ac39 e38a d23e d0b0 f63e 98da 03bf
000002b0: dcf6 bf3e ea33 9dbe bf2c fc3e 7aec da3e
000002c0: b234 28be ec7d 15bf b45b 633e 14d6 13be
000002d0: 08f8 403e 299d e5be d770 773e ab5e 08be
000002e0: 04a7 2b3e a686 2c3e 66c5 023f 6869 86be
000002f0: cd08 e23e 1fca 253d 1c76 eb3e ffcd 2ebc
00000300: a71b 4b3e 3a91 fbbe c610 753f a462 ddbc
00000310: f76e dd3b b0d6 263f 976c e4be 4edb 90be
0.012916222 0.5370812 -0.60752267 0.028326709 -0.7435441 -0.15458956 0.42892274 0.2624291
0.56948435 -0.12891401 0.0016254331 -0.38424167 -0.27145806 -0.27605563 -0.32203043 0.53947544
0.38814956 -0.46876076 -0.47932273 -0.5037985 0.6329028 -0.28379762 -0.09483454 -0.51028216
0.25808975 -0.36532018 -0.017809266 0.18029079 -0.42943752 -0.2895344 -0.13649637 -0.30929115
-0.2530815 -0.25171113 -0.17573974 0.022141075 0.49021205 0.5376973 0.038994987 0.42431024
-0.15330547 0.20426504 -0.38418838 -0.8000897 0.7675079 0.3187946 -0.31767422 -0.86532515
0.82671785 -0.7540187 -0.6252694 0.2162097 0.06448565 0.18243146 -0.3213065 0.5141816
-0.5812867 0.5292221 0.7720158 -0.5639715 0.12014807 0.4463856 0.08061496 0.019539108
-0.036790397 -0.38998625 0.289026 0.31944194 0.07267861 -0.12367596 0.4798893 0.10370613
-0.120325826 -0.5844581 -0.47836664 0.38149372 0.29857466 0.18971251 -0.4765344 -0.11441065
0.22526601 -0.13366774 -0.4618798 0.82238686 0.21913034 -0.080061056 0.6716023 0.23310317
-0.50717366 0.3195527 -0.5698875 0.5178002 -0.64398533 0.10444061 -0.27978483 -0.17789677
0.59588134 0.16881762 -0.2530378 0.42065516 0.37718892 0.7018276 -0.19751336 -0.2798717
0.5980378 -0.7115698 0.15690926 -0.4365261 0.5768372 0.4778563 -0.5911638 -0.72856504
-0.3505847 0.024554592 0.38383275 -0.18318446 -0.8422824 -0.35917744 -0.24041402 0.21574825
0.5108592 0.27458715 0.2307728 -0.31577155 0.0019342169 0.24676234 -0.31638852 0.01591388
0.24320233 0.60234004 0.13663276 -0.880122 0.29463086 -0.549981 -0.06335482 -0.22693615
-0.2560836 0.1558837 0.28471065 0.17137246 -0.68848026 -0.044769447 -0.45306256 0.22728321
0.4923755 0.03079669 0.08734814 0.39905953 0.49740884 -0.003617499 0.04902248 0.6665689
0.137533 0.45578098 0.15838622 -0.7646805 0.085880995 -0.6489921 0.2514589 0.79085964
0.47441438 0.36173224 -0.20323212 -0.36461434 0.21871887 0.20629145 -0.3912301 -0.7104582
0.0003295535 0.41121587 0.48181772 -0.5150542 0.37493026 -0.3070367 0.4925289 0.42758542
-0.16426352 -0.58395267 0.2220295 -0.14437133 0.18844616 -0.44846466 0.24164139 -0.13317363
0.1676293 0.1684824 0.51082456 -0.26252294 0.4414734 0.04047596 0.45988548 -0.0106692305
0.19834767 -0.49134237 0.9572872 -0.027024575 0.006757613 0.6517134 -0.44614097 -0.28292316

bias f4 [10]
00000000: 73d0 e2bd f536 22be 3d2f 023c 4a05 d7bc
00000010: 8651 bf3e 6046 a4bd 94d1 b9bd 4379 633e
00000020: 620b bc3c 708d 05be
-0.11074915 -0.15841277 0.007945833 -0.02624764 0.37366885 -0.080212355 -0.09073177 0.22214226
0.022954646 -0.13042235

weight f4 [1, 10]
00000000: b00e aa3f 669f 75bf 260d f5bf 8df9 a23e
00000010: ca52 c1bf 7e60 c63f 48a7 803f ddd7 c2bf
00000020: e239 823f edc7 9b3f
1.3285732 -0.9594635 -1.9144638 0.31831017 -1.510339 1.5498197 1.005105 -1.5222126
1.0173914 1.2170388
