model.pth (torch, 6215 bytes, 5 tensors)

weight f4 [20, 26]
0.039225508 -0.15572917 -0.13642593 -0.12548374 -0.27668393 -0.19461678 0.55382574 0.51278096
0.20737404 0.18505025 0.49965325 0.10486808 -0.17372122 -0.117896125 -0.2882436 -0.40221712
0.21587926 -0.4148964 0.3089059 -0.7552424 -0.10161662 -0.1935064 -0.47168022 -0.15564908
-0.22027048 -0.31155103 0.18572621 -0.031809762 0.34070948 -0.41266146 -0.06797847 0.04308167
0.317605 0.067952335 0.28072158 0.053081986 -0.16986652 -0.32203186 0.3613958 -0.1774715
-0.27261862 0.40783882 -0.065556735 -0.39106938 0.31371522 -0.28190094 -0.17723626 0.31105074
0.44113272 -0.005401237 -0.36677343 0.13732502 -0.29294142 -0.014701478 0.3711117 0.13411835
-0.42125723 0.090876974 -0.3690629 -0.46315333 -0.041551597 -0.19586869 0.52556795 -0.08212103
0.2724996 0.2482265 -0.38227108 -0.035890892 -0.28488004 0.42564645 -0.4004299 -0.16379403
0.42681867 0.4331121 0.32187456 -0.16473341 0.106003284 0.038387913 0.4567346 0.15960576
0.34299803 -0.23669663 -0.23724194 0.1914903 0.015154393 0.3338455 0.28039426 -0.34487316
0.3463168 0.172026 -0.36030364 0.32740667 0.31640026 0.051859196 -0.19662726 -0.11314311
0.2344439 -0.052447654 -0.3396483 -0.23957813 0.1810503 0.19610085 0.25943398 0.6102236
-0.10827376 0.37162316 0.46726602 0.5884467 0.46725246 0.025908388 -0.03440184 0.353327
0.36783502 -0.12516059 0.5530677 -0.27724537 0.18554454 0.2531061 0.37863696 -0.28309542
0.38394594 0.30121073 -0.12252775 0.29047558 0.29639465 0.38951236 0.11137885 1.1835383
-0.23927024 -0.37169582 0.069528006 -0.4095542 -0.056992687 0.05268198 -0.2935756 -0.22239593
0.110950164 0.029477518 -0.18218479 0.17896299 0.13642205 0.117347926 0.19567238 -0.24551219
-0.20836446 -0.34593642 0.21062487 -0.4035036 0.2667393 -0.5220642 0.43807012 0.5697424
-0.086099476 -0.23048043 -0.33928743 0.40867862 0.2897761 -0.24343349 -0.18030821 -0.26688245
-0.3052199 0.051998988 0.45264456 -0.1015521 -0.047083504 0.26228055 -0.78257126 0.18785018
0.29554772 -0.12773445 0.16683671 -0.37994877 0.08320391 -0.2307008 -0.0014595389 0.13163042
-0.45001394 0.6380493 -0.22756678 0.037654713 -0.32246116 -0.35721648 -0.75024855 -0.05731467
0.14885773 0.013146858 0.18750708 0.5439429 -0.39345416 -0.4201201 -0.17719468 0.04684804
-0.5215051 -0.21030635 0.22635533 -0.38239858 0.40838653 -0.54751223 0.20841664 0.06477146
-0.33200425 0.11950639 0.26771837 0.14703088 -0.18683505 0.012972829 -0.09420326 0.6886316
0.5617421 0.40025213 0.8602606 0.34788442 -0.089663 -0.24211907 -0.06654936 -0.24881755
-0.058663443 -0.26050237 0.22024038 0.36510792 -0.28323248 -0.18274662 0.43156868 0.35464337
0.22092664 -0.5621864 0.25764537 0.4513256 -0.051236212 -0.099113956 0.4535585 0.24345712
-0.21082407 -0.2624025 -1.0900546 -0.51327366 -0.05084644 -0.33334965 -0.36101156 -0.18740553
-0.083499275 0.39308447 -0.26812324 0.037842818 0.08250768 -0.15012261 -0.28999949 -0.046209894
-0.30573726 0.34424394 0.45333254 -0.07458607 -0.3950794 0.24181016 0.18152654 -0.16367374
00000000: edaa 203d 7877 1fbe 3db3 0bbe cf7e 00be
00000010: 84a9 8dbe 9f49 47be 86c7 0d3f 9d45 033f
00000020: dc59 543e d07d 3d3e 8dd2 ff3e 13c5 d63d
00000030: fae3 31be 8673 f1bd aa94 93be 67ef cdbe
00000040: 740f 5d3e 4d6d d4be ea28 9e3e 9157 41bf
00000050: 601c d0bd 8b26 46be 1280 f1be 7962 1fbe
00000060: 968e 61be 9e83 9fbe 032f 3e3e f44a 02bd
00000070: 7971 ae3e 5d48 d3be 4c38 8bbd 6876 303d
00000080: 1f9d a23e 982a 8b3d bdba 8f3e 7f6c 593d
00000090: 7df1 2dbe 5ce1 a4be df08 b93e 17bb 35be
000000a0: ab94 8bbe 40d0 d03e 9c42 86bd 3f3a c8be
000000b0: 489f a03e 5255 90be 6c7d 35be 0b42 9f3e
000000c0: 26dc e13e dcfc b0bb bac9 bbbe ee9e 0c3e
000000d0: 6bfc 95be 78de 70bc 5a02 be3e 5256 093e
000000e0: 07af d7be b51d ba3d d0f5 bcbe 6f22 edbe
000000f0: 0232 2abd cd91 48be 9f8b 063f 122f a8bd
00000100: 1185 8b3e 162f 7e3e 09b9 c3be 5402 13bd
00000110: ccdb 91be 55ee d93e 2605 cdbe 9fb9 27be
00000120: fa87 da3e dfc0 dd3e becc a43e e0af 28be
00000130: 4018 d93d a53c 1d3d 1ed9 e93e b16f 233e
00000140: 709d af3e 9a60 72be 8def 72be 0916 443e
00000150: 224a 783c cced aa3e d68f 8f3e 3793 b0be
00000160: 7050 b13e 9527 303e b879 b8be d9a1 a73e
00000170: 37ff a13e 4f6a 543d a858 49be 93b7 e7bd
00000180: 1012 703e 5ad3 56bd 62e6 adbe f853 75be
00000190: 4065 393e a9ce 483e 88d4 843e 9d37 1c3f
000001a0: a2be ddbd 6445 be3e 7e3d ef3e 71a4 163f
000001b0: b73b ef3e d43d d43c f2e8 0cbd 47e7 b43e
000001c0: df54 bc3e 192a 00be d895 0d3f 1bf3 8dbe
000001d0: 63ff 3d3e 1f97 813e b4dc c13e e2f1 90be
000001e0: 9094 c43e 4b38 9a3e d4ef fabd 37b9 943e
000001f0: 0ac1 973e 2a6e c73e 981a e43d 2f7e 973f
00000200: 4203 75be ea4e bebe b364 8e3d 17b1 d1be
00000210: 2a71 69bd 0fc9 573d 8b4f 96be c2bb 63be
00000220: d739 e33d d67a f13c a68e 3abe 1342 373e
00000230: 39b2 0b3e 1c54 f03d 575e 483e 8c67 7bbe
00000240: 7e5d 55be 941e b1be 0cae 573e 0698 cebe
00000250: 0e92 883e 00a6 05bf ba4a e03e a3da 113f
00000260: ec54 b0bd 1003 6cbe 15b7 adbe 533e d13e
00000270: 885d 943e a146 79be b7a2 38be d1a4 88be
00000280: c845 9cbe e4fc 543d 07c1 e73e 8cfa cfbd
00000290: a2da 40bd a349 863e 9756 48bf cc5b 403e
000002a0: 0852 973e d2cc 02be 3ed7 2a3e a588 c2be
000002b0: d066 aa3d d53c 6cbe 004e bfba 20ca 063e
000002c0: 3a68 e6be 3357 233f 4407 69be d43b 1a3d
000002d0: a119 a5be 14e5 b6be 4a10 40bf cac2 6abd
000002e0: 296e 183e eb65 573c db01 403e d83f 0b3f
000002f0: d372 c9be fb19 d7be 8672 35be bbe3 3f3d
00000300: 5c81 05bf 8c5a 57be b1c9 673e bfc9 c3be
00000310: 0a18 d13e c329 0cbf 2c6b 553e e6a6 843d
00000320: 76fc a9be c4bf f43d 6212 893e 438f 163e
00000330: b051 3fbe fd8b 543c a4ed c0bd 294a 303f
00000340: 55ce 0f3f d9ed cc3e 0a3a 5c3f e81d b23e
00000350: 3ca1 b7bd 10ee 77be 084b 88bd 07ca 7ebe
00000360: 1449 70bd 9160 85be b286 613e 6def ba3e
00000370: d903 91be ee21 3bbe 92f6 dc3e d193 b53e
00000380: 983a 623e 73eb 0fbf 18ea 833e 2614 e73e
00000390: 10dd 51bd 42fc cabd d238 e83e d34c 793e
000003a0: 44e2 57be 9f59 86be e986 8bbf e765 03bf
000003b0: 5b44 50bd ceac aabe 82d6 b8be 3ce7 3fbe
000003c0: ab01 abbd 5e42 c93e 7347 89be 1201 1b3d
000003d0: c9f9 a83d beb9 19be d07a 94be 9646 3dbd
000003e0: 9889 9cbe be40 b03e 341b e83e 95c0 98bd
000003f0: d947 cabe 159d 773e 18e2 393e 179a 27be

bias f4 [20]
0.09586423 -0.5131379 0.07490403 -0.3068433 -0.24614085 -0.44517732 0.24297057 0.08034277
-0.31184497 -0.15946615 0.0664768 0.1479607 -0.1896462 0.023896454 -0.20466873 0.12822528
0.049740378 -0.28150445 -0.057180747 -0.11359065
00000000: 7754 c43d 015d 03bf 4967 993d 911a 9dbe
00000010: 590c 7cbe 48ee e3be 47cd 783e c08a a43d
00000020: 25aa 9fbe 184b 23be fd24 883d 0283 173e
00000030: 9d32 42be 7fc2 c33c ae94 51be 7d4d 033e
00000040: 91bc 4b3d 5a21 90be 5c36 6abd 37a2 e8bd

weight f4 [10, 20]
0.2531677 -0.32771632 0.25162554 -0.18705744 0.30468294 -0.25652027 -0.015297358 -0.44669226
0.5809786 0.2528752 -0.24500707 0.31240726 0.40308878 0.35937265 -0.66395396 -0.33071893
-0.19388875 -0.2007303 -0.40452737 0.5947461 -0.3283154 0.30333582 -0.09358641 0.20183119
0.023705794 0.56926304 0.07262199 0.5012766 -0.1634052 0.10011416 -0.6047995 -0.5446183
-0.10749714 0.32575974 0.48883718 0.37033474 -0.70279646 0.32311487 -0.95981324 -0.03614684
-0.3947643 0.27972934 -0.1633549 0.24430601 -0.4348097 0.13261901 -0.44540492 0.066873014
0.26357904 -0.14745416 0.017190492 -0.6221499 0.20129052 -0.47997805 0.26058882 0.2029743
-0.44100264 -0.120051146 -0.052037086 0.526427 -0.52613056 -0.24257742 0.5864846 -0.17362776
-0.9309377 0.78000146 0.3979541 0.4041673 0.51516455 -0.4016616 -0.45085302 -0.48746845
-0.5960935 0.50639004 -0.3790724 -0.14095776 -0.0016191639 -0.3772578 0.60952866 0.66660684
0.5002291 -0.0028800315 0.34757277 0.48143739 -0.45568243 0.43887198 -0.2843423 0.19279553
-0.2859983 -0.4774152 -0.121633135 0.17226218 0.10148982 0.70207465 0.31250563 0.26705265
0.5088066 0.72149336 -0.045452192 -0.5145539 0.18504247 -0.13666709 0.5960285 -0.3857145
0.3812227 -0.23404516 0.6195671 -0.8148634 -0.83668506 -0.88332796 -0.16854799 -0.4441164
0.41002515 0.15638432 0.4726179 -0.407418 0.46591538 -0.7443347 0.70685023 0.26692346
0.41861263 -0.550188 0.39142433 0.50522596 -0.27368668 0.06520165 -0.36103868 -0.24432394
-0.16644022 -0.023609363 -0.54449755 0.1057088 0.090669334 -0.1453751 -0.51059866 0.039590653
-0.3290349 0.16019082 0.33547068 0.3003963 -0.046559695 -0.2757954 0.36522856 0.18001665
0.8311714 -0.61666834 0.09600319 -0.6752172 -0.47232687 -0.35339183 0.03381269 -0.012192427
-0.47329357 -0.27309346 -0.09795209 -0.04495459 -0.3352845 0.74130815 0.10195483 -0.84114856
-0.25206006 -0.20886107 -0.38261995 0.38405237 0.042069484 0.19381951 -0.14585997 0.37974894
0.057798997 -0.10608234 0.46199244 -0.21615092 -0.2621344 0.23008823 0.5201398 0.18884447
-0.5430356 -0.39256763 0.49638537 0.14958324 0.5835327 -0.31393117 -0.1778476 -0.39488524
0.4790816 -0.09772161 -0.08402052 0.5894366 -0.4491558 0.12819493 0.46645522 -0.30953166
-0.35647494 0.498555 0.45265 0.19908178 0.5735096 -0.620374 -0.22589615 -0.46892223
00000000: 329f 813e 6fca a7be 10d5 803e fc8b 3fbe
00000010: 67ff 9b3e a056 83be c5a1 7abc d9b4 e4be
00000020: 03bb 143f dc78 813e 22e3 7abe d8f3 9f3e
00000030: a761 ce3e b1ff b73e e3f8 29bf fe53 a9be
00000040: c68a 46be 3e8c 4dbe 361e cfbe 4841 183f
00000050: f518 a8be d54e 9b3e 3baa bfbd d6ac 4e3e
00000060: a732 c23c 39bb 113f d7ba 943d aa53 003f
00000070: b153 27be a708 cd3d 24d4 1abf 1b6c 0bbf
00000080: 7627 dcbd fbc9 a63e de48 fa3e 849c bd3e
00000090: 78ea 33bf 506f a53e 52b6 75bf b50e 14bd
000000a0: 8c1e cabe af38 8f3e 8246 27be 5b2b 7a3e
000000b0: 619f debe 47cd 073e 1d0c e4be b8f4 883d
000000c0: d5f3 863e 39fe 16be 13d3 8c3c 3745 1fbf
000000d0: 1a1f 4e3e afbf f5be e66b 853e 7fd8 4f3e
000000e0: 19cb e1be 60dd f5bd d724 55bd ebc3 063f
000000f0: 7eb0 06bf 3766 78be db23 163f 7acb 31be
00000100: ef51 6ebf 2dae 473f a4c0 cb3e 04ef ce3e
00000110: d3e1 033f 97a6 cdbe 35d6 e6be 7795 f9be
00000120: 9599 18bf c7a2 013f c715 c2be 3b57 10be
00000130: 203a d4ba ef27 c1be 120a 1c3f bfa6 2a3f
00000140: 040f 003f e9be 3cbb 0ff5 b13e f67e f63e
00000150: 354f e9be d4b3 e03e 5095 91be 316c 453e
00000160: 5f6e 92be c46f f4be cb1a f9bd 7f65 303e
00000170: e5d9 cf3d 2abb 333f bd00 a03e 20bb 883e
00000180: 2641 023f cab3 383f 142c 3abd ceb9 03bf
00000190: c67b 3d3e 75f2 0bbe 5395 183f 5f7c c5be
000001a0: 9f2f c33e 89a9 6fbe f39b 1e3f e39a 50bf
000001b0: fe30 56bf c821 62bf d897 2cbe 3a63 e3be
000001c0: d1ee d13e 3623 203e f9fa f13e 1899 d0be
000001d0: 768c ee3e b88c 3ebf 23f4 343f 31aa 883e
000001e0: 6554 d63e 1fd9 0cbf c568 c83e 7d56 013f
000001f0: a920 8cbe 7188 853d 10da b8be 0e30 7abe
00000200: 4e6f 2abe 6c68 c1bc 3164 0bbf db7d d83d
00000210: d8b0 b93d 36dd 14be 98b6 02bf cf29 223d
00000220: 4377 a8be 1009 243e d0c2 ab3e 8bcd 993e
00000230: 61b5 3ebd 0e35 8dbe 3dff ba3e 4956 383e
00000240: a6c7 543f fadd 1dbf 529d c43d 09db 2cbf
00000250: d4d4 f1be c6ef b4be 2d7f 0a3d bfc2 47bc
00000260: 8953 f2be e8d2 8bbe 1b9b c8bd 4e22 38bd
00000270: 69aa abbe 5fc6 3d3f b2cd d03d 8355 57bf
00000280: 040e 81be addf 55be c3e6 c3be 83a2 c43e
00000290: 0d51 2c3d 9f78 463e 515c 15be 746e c23e
000002a0: a4be 6c3d b341 d9bd 468a ec3e ab56 5dbe
000002b0: 7b36 86be 409c 6b3e e227 053f 7260 413e
000002c0: 6204 0bbf a0fe c8be 3926 fe3e 592c 193e
000002d0: 6662 153f 96bb a0be ae1d 36be 662e cabe
000002e0: 2f4a f53e 4422 c8bd f312 acbd 51e5 163f
000002f0: c0f7 e5be 8845 033e 38d3 ee3e ef7a 9ebe
00000300: e283 b6be 9a42 ff3e bec1 e73e 18dc 4b3e
00000310: 86d1 123f d5d0 1ebf 5251 67be 9316 f0be

bias f4 [10]
-0.0077601965 -0.20814979 -0.39539924 0.31730148 -0.082969666 0.42423007 -0.3195272 -0.47143131
0.153057 -0.41400838
00000000: 3f49 febb 3825 55be c571 cabe 5775 a23e
00000010: 00ec a9bd af34 d93e 1299 a3be 725f f1be
00000020: f9ba 1c3e e8f8 d3be

weight f4 [1, 10]
0.9741622 1.3094709 0.8348908 -1.4995246 0.91264075 -1.6671915 0.8044575 -1.5744864
0.37127805 -0.7505604
00000000: b262 793f be9c a73f 67bb 553f 6cf0 bfbf
00000010: d3a2 693f 8866 d5bf edf0 4d3f c588 c9bf
00000020: 2818 be3e ba24 40bf
