model.pth (torch, 10213 bytes, 10 tensors)

hidden1.weight f4 [20, 26]
000000 24 67 bd be db 6e 4c be c7 ea de bd 52 5d d8 bb
       -0.36992753 -0.19964163 -0.10884624 -0.0066029215
000010 fd aa f2 be 98 17 bc bd 49 21 18 3f 1e f7 4d be
       -0.4739608 -0.09184188 0.5942579 -0.20113799
000020 0a c9 77 3e 63 15 fd be a2 de 03 3d 90 88 8d be
       0.24197784 -0.4943038 0.03219474 -0.2764325
000030 cc ad 2a be e7 31 b3 bd 75 4a f4 be 55 fd b4 be
       -0.16667861 -0.087497525 -0.47713056 -0.35349527
000040 d4 84 d4 3e 5c ce c6 bd ac d3 5d be 39 36 e9 3e
       0.4150759 -0.09707329 -0.21662778 0.4554918
000050 b8 20 c5 3e 7b e0 e9 bd 12 47 a0 be 6a d4 18 bf
       0.38501525 -0.114197694 -0.31304222 -0.5969912
000060 de 40 dd 3e 4e dc 10 3f 82 01 86 3e 8f 53 35 3f
       0.43213552 0.5658616 0.26173025 0.70830625
000070 8a b4 1b 3e 9f 7c 85 3d 8d 4c 83 3e 42 df 58 be
       0.15205589 0.0651791 0.2564434 -0.21178916
000080 2b 81 44 3e ce f7 51 be 91 2c 47 be 41 e6 7b be
       0.19189899 -0.20504686 -0.19450594 -0.24599554
000090 5e 07 1b bf c6 cd 6b bd d8 93 e5 bc a5 4b 98 be
       -0.60558116 -0.057569288 -0.028024599 -0.29745212
0000a0 ab 64 e3 3d ae 23 59 bd 9a 4b c5 be 6b 5a 9a 3e
       0.11103185 -0.053012542 -0.38534242 0.30147108
0000b0 ee 04 3a be 89 23 9e 3d 3a 05 eb be a9 26 51 bd
       -0.18165943 0.077216215 -0.45902425 -0.05106226
0000c0 b2 dd 31 be 6b e7 9f 3b 08 d7 3b bd 50 52 dd 3e
       -0.17369726 0.004879882 -0.045859367 0.43226862
0000d0 97 1e 26 bf d0 93 23 be 41 6b 87 3e 54 41 c5 3e
       -0.64890426 -0.15974355 0.26449016 0.38526404
0000e0 6e c9 98 be b6 fa 3b bd 7e f1 7d 3d a6 ea 6c bd
       -0.2984118 -0.045893393 0.061997883 -0.057840966
0000f0 6b b4 8c 3e b7 79 90 be 9f 58 d8 be b1 63 eb 3d
       0.27481398 -0.2821786 -0.42255113 0.11493624
000100 6e f7 f1 bb 8e e7 c9 3e c9 fb d9 bd 8b 9f 28 bd
       -0.0073842322 0.39434475 -0.10643727 -0.041167777
000110 da 15 90 3e f9 a0 90 3e b4 5d 82 be ed 34 be 3c
       0.2814167 0.28247812 -0.25462115 0.023218596
000120 48 25 c7 be 40 d7 b1 be 40 db 9d 3d 55 07 d9 3d
       -0.3889563 -0.34734535 0.07707834 0.105971016
000130 88 07 3c be e4 48 d1 be cb 7f 8e be dc 3d 87 3e
       -0.18362248 -0.40875924 -0.27831873 0.26414382
000140 6b cb 0a 3f c6 b7 90 3e e5 02 af bd 42 89 87 be
       0.5421664 0.28265208 -0.08545474 -0.26471907
000150 99 4d c2 3d 6d f0 05 3f cc 45 be bc 17 41 b7 3a
       0.09487457 0.52319986 -0.023226641 0.001398119
000160 c7 11 53 3e 95 fb f8 be 03 50 9a be dd 21 de be
       0.2061225 -0.48629442 -0.3013917 -0.4338521
000170 a2 35 e0 3e f0 ad e7 be 00 86 40 bd 73 f3 25 be
       0.4379092 -0.4524989 -0.047002792 -0.1620615
000180 08 88 cf 3d d1 02 c4 be f2 6a f2 3e fd 12 dc bd
       0.10133368 -0.382834 0.47347218 -0.10745809
000190 d4 d7 11 3e 56 b3 22 3f 3c 39 84 be 27 78 c7 bd
       0.14242488 0.63554895 -0.25824916 -0.09739714
0001a0 2d ac 29 bf 3b 10 f0 3e 15 75 b5 bc 03 31 6c be
       -0.66278344 0.46887383 -0.022150556 -0.23065571
0001b0 d9 5f 97 be 61 e7 37 be 87 c4 2e 3f b3 b2 69 3e
       -0.29565313 -0.17959358 0.68268627 0.22822075
0001c0 4b 34 14 be d6 f0 b4 3d cd 41 fe be 4e cf 8d 3e
       -0.14473073 0.08834998 -0.49659577 0.27697223
0001d0 a7 66 99 3e 7c ea 8d be 65 41 8f bc 96 cb 1c 3f
       0.2996113 -0.2771796 -0.017487237 0.6124815
0001e0 f4 bd 93 3e 18 bc 88 3e 96 6e 67 be c4 cb 20 3e
       0.2885586 0.26706004 -0.22600779 0.1570273
0001f0 10 f5 3c 3d 6f 2c de bd 80 c1 1e bd ed 5e 9f be
       0.046132147 -0.10848319 -0.038758755 -0.3112711
000200 38 f8 14 bd 8a 95 05 3e 1e a7 39 3f 18 bb a7 3e
       -0.036369532 0.13045326 0.72520626 0.3275993
000210 25 f4 ea be c6 fa 00 3e 35 57 00 bf c2 76 28 bd
       -0.45889392 0.12595662 -0.5013307 -0.04112888
000220 7b 06 03 bf f3 47 8b 3d 45 9b 8c be 11 b5 60 be
       -0.51181763 0.068008326 -0.2746221 -0.21944071
000230 18 5c a8 be cb f8 9c be 4c 18 14 3f 7f 82 67 3e
       -0.32882762 -0.30658564 0.57849574 0.22608374
000240 63 7f 98 be 08 6c 72 3e 50 dd 50 be 56 fd 5f 3e
       -0.29784688 0.23674023 -0.20396924 0.21873984
000250 e6 58 29 be 9b 2c 26 be 70 d3 b6 3d 04 80 33 bd
       -0.16537818 -0.16227953 0.08927047 -0.043823257
000260 30 7f d8 be bd 4c f7 3e de d9 ac be c6 eb 84 3e
       -0.42284536 0.48300734 -0.3375997 0.2596113
000270 a9 1b 17 be cf 02 2c 3f 2d 67 92 be bb 3f db 3b
       -0.14756645 0.67191786 -0.28594342 0.006690947
000280 48 91 aa be 8e bb bc be a6 f2 09 be 3f 6c 2b 3e
       -0.33313966 -0.36861843 -0.1347147 0.16740511
000290 d8 4a cc 3e 25 1a 65 3e 6e ac 19 3f 5d 0d 43 3c
       0.3990085 0.22373255 0.6002873 0.0119050415
0002a0 76 4f be 3e 30 9f e3 bd 00 a3 d9 3e ac 41 4c 3e
       0.3717 -0.11114347 0.42507172 0.19946927
0002b0 86 39 d8 3e ad e6 e5 be 80 69 be bb 22 64 70 bc
       0.42231387 -0.44902554 -0.0058109164 -0.014672311
0002c0 ec 28 c3 3e 88 f8 d8 bc 20 8c 05 be bf 01 87 be
       0.38117158 -0.026485696 -0.13041735 -0.2636852
0002d0 69 d9 d4 be 40 a5 c8 3e c9 ef bb 3e 15 37 24 bf
       -0.4157212 0.39188576 0.3670638 -0.6414655
0002e0 b3 77 1f 3e 36 a6 b3 be d1 8b 5d be ee f6 96 be
       0.15573005 -0.35087746 -0.21635367 -0.29485267
0002f0 76 19 39 be 63 03 ae bd 66 e3 d3 3e 18 40 b2 be
       -0.18076119 -0.0849674 0.4138443 -0.34814525
000300 b3 60 03 be 2b c0 97 be 9b 8c 55 3e 24 37 a4 3d
       -0.12829857 -0.296388 0.20854418 0.0801833
000310 41 b5 6d be 87 e1 ed 3e f0 be f1 bd a0 24 e4 be
       -0.23213674 0.46461126 -0.118039966 -0.44559193
000320 d4 d7 a9 be 16 81 bb be 94 ac b2 be a6 a9 1f 3f
       -0.33172476 -0.36621922 -0.34897292 0.6236824
000330 48 30 f5 3d 6e fa 07 3e 0c 9f 39 be ba f4 18 3f
       0.119720995 0.13279125 -0.18127078 0.59748423
000340 97 5c f0 3e 5b 4b c3 3e 26 89 4f 3d a2 d2 c6 be
       0.4694564 0.3814343 0.050667904 -0.38832575
000350 64 09 d1 3e e4 5a 00 3f 0a e2 91 be 4d ce 52 3e
       0.40827477 0.5013869 -0.28492767 0.2058651
000360 fc 85 5d 3d 2d 6d 59 3d c9 34 8c 3e 43 bd 9f 3e
       0.054082856 0.053082634 0.27384022 0.31199083
000370 07 c5 6c 3e a5 e2 32 3e 1d 3d 8e be 1d 28 8d 3e
       0.23122035 0.1746927 -0.27781 0.27569667
000380 dc e4 ea 3e 20 19 07 3f c0 6c 50 3c 1b d3 03 3f
       0.4587773 0.5277271 0.0127212405 0.51493996
000390 84 4d ab bd 70 f8 93 3e fc 52 28 3e 56 96 29 3f
       -0.08364394 0.2890048 0.16437906 0.6624502
0003a0 55 15 88 be 41 b4 1b bf 9e 0c a6 be d3 b0 ad be
       -0.26578775 -0.6082192 -0.324315 -0.3392397
0003b0 20 bd da 3e f4 be 2c bd 8d 7e 25 3d bc 95 f4 3e
       0.42722416 -0.042174295 0.04040389 0.47770488
0003c0 98 8e 06 3f 93 43 06 bd a5 2b 9e 3e 94 3a bc 3e
       0.5256133 -0.032779288 0.30892673 0.36763442
0003d0 42 f2 c3 be 22 6d 89 3e f8 9d 7c 3e 14 2f 00 3f
       -0.38270766 0.26841074 0.24669635 0.50071836
0003e0 48 08 30 3e 33 e6 31 be b8 23 1a 3e 82 f8 6c 3d
       0.17190659 -0.1737297 0.15052688 0.057854183
0003f0 46 5f d0 3e c9 27 9e 3e 28 ce fd 3d de 94 77 be
       0.40697688 0.3088973 0.12392837 -0.24177882

hidden1.bias f4 [20]
000000 ca 4d 07 3d 63 55 f6 bc 8f cd 13 3e b0 29 ef 3e
       0.03303317 -0.030070012 0.14433883 0.46711493
000010 96 0c dd 3d 37 04 d8 3e 68 14 06 bd bb 10 80 be
       0.10793416 0.42190716 -0.032734305 -0.25012764
000020 71 e7 83 be 75 44 35 bd de 93 c4 be 14 e7 93 be
       -0.25762513 -0.04425474 -0.38394064 -0.28887236
000030 97 80 de bc 42 57 ae 3d 25 d0 ae 3e 64 62 62 3e
       -0.027160926 0.08512737 0.34143177 0.22107846
000040 43 ae 8e bd 7e 93 82 bc b6 8d 06 be 11 e9 7c 3e
       -0.069668315 -0.01593947 -0.13139996 0.24698283

hidden2.weight f4 [10, 20]
000000 ad 42 89 3e 72 92 d8 3e 88 d4 3b be d4 67 e9 be
       0.26808682 0.4229923 -0.18342793 -0.45587027
000010 88 e4 58 3d 70 8b f5 3e 06 95 79 be 21 a9 a7 be
       0.05295232 0.47957945 -0.24373254 -0.32746223
000020 3e ea 96 3e 32 93 d9 3d 6c 23 9b 3e d2 f2 28 3e
       0.29475588 0.106237784 0.30300462 0.16498879
000030 0f 1a 17 bf da 87 4f be 3c 7a ce 3e d0 cc b5 3e
       -0.5902414 -0.20266667 0.40327632 0.35507822
000040 77 10 e2 be 5c 84 e0 be 79 13 88 be f0 80 ba 3e
       -0.44153187 -0.43850982 -0.26577356 0.36426497
000050 11 1e 25 bf 79 d2 ef bd e8 b7 f4 be 7e 11 17 3f
       -0.64499 -0.11710066 -0.4779656 0.59011066
000060 5d c5 59 be 9e 4d ba 3e 93 e7 1e 3f 4e 56 f6 bd
       -0.21266694 0.36387342 0.62072104 -0.1202818
000070 5d 16 f0 be c1 ca d2 3d cf 11 13 bf 2d 50 65 3f
       -0.46892062 0.102925785 -0.5744905 0.89575464
000080 b2 3d 0b 3e 63 5f e8 be f1 80 88 3e 58 48 0f bd
       0.13597754 -0.45385274 0.26660874 -0.0349811
000090 2f 8c e9 3e b8 98 14 bf ad 22 0c bf 90 1a fa be
       0.45614764 -0.5804553 -0.5474041 -0.4884839
0000a0 cd ea 0b bf 2d c6 df be 62 35 24 3f a9 35 bd be
       -0.5465515 -0.43705884 0.64143956 -0.36955002
0000b0 80 5b 1d bf d6 2c 5b 3d c8 29 40 3e 88 5f f7 be
       -0.6146774 0.053509556 0.18765938 -0.48315072
0000c0 8b 79 f9 3e 7e e2 4f bf e0 ec 7c 3e c1 26 07 be
       0.48725542 -0.81204975 0.24699736 -0.13198377
0000d0 33 a4 1c 3f 4a 27 cb bd 4a f2 bf be 54 9d 05 3f
       0.6118805 -0.09919603 -0.3748954 0.5219319
0000e0 24 63 78 be 23 3e 13 3f 29 20 13 bf 8c 27 05 bd
       -0.24256569 0.5751669 -0.5747095 -0.032508418
0000f0 34 e5 85 3d f6 d3 12 bf fd 99 88 3e 67 3f c1 3e
       0.06537858 -0.57354677 0.26679984 0.37743685
000100 3d 60 35 3e 7c d9 00 3e da eb 0e 3e ee 5d fd 3d
       0.17712493 0.12582964 0.13957158 0.12371431
000110 f1 76 88 be bb d1 0b bf 0e 89 2d 3e 77 f7 10 3f
       -0.26653245 -0.546169 0.16946813 0.566276
000120 bf eb 30 be d4 63 a4 3e 08 8c 46 bf 45 d5 90 3e
       -0.1727743 0.32107413 -0.7755742 0.28287712
000130 ef c9 5a 3d 7d 73 24 3e ea de a2 be ab b1 ef be
       0.053415235 0.1605968 -0.31810695 -0.46815237
000140 e0 35 4a 3e 33 fc 13 bf 96 22 bf be 1c 6e 1d 3f
       0.19747114 -0.578067 -0.37331074 0.6149614
000150 02 cb 06 3f d2 f0 a7 3e dc a0 a4 3e c6 8f cc be
       0.52653515 0.3280092 0.32153976 -0.3995344
000160 0c 2a 8e bf 55 a0 d9 3d 94 7a 5d 3f d6 b2 ab 3e
       -1.1106582 0.10626284 0.86515164 0.33534878
000170 00 81 0b bf dd 30 ea be 62 27 a0 3d 08 36 eb 3d
       -0.54493713 -0.45740405 0.07820012 0.11484915
000180 7c 46 4c bf 7c 40 0a 3f 59 50 31 bf 98 fd 0e 3e
       -0.7979505 0.54004645 -0.69263226 0.13963926
000190 d2 70 0e bd c4 97 0a bf 06 1c 1e be 36 58 90 bb
       -0.034775563 -0.54137826 -0.15440378 -0.004405047
0001a0 c6 dd de be 94 65 2d 3e 3d d5 a0 be 99 83 2b bf
       -0.43528575 0.1693328 -0.31412688 -0.6699768
0001b0 ab 76 ef be 44 0a dd 3e 3e 26 ee 3e d5 64 8b be
       -0.46770224 0.43171895 0.4651355 -0.27225366
0001c0 7e 45 7a 3e 5e dc 84 be 72 20 27 bf c5 25 bd 3d
       0.24440572 -0.25949377 -0.6528388 0.092357196
0001d0 97 1e d8 3e 0c 41 e0 be 75 76 f6 3e dd 83 a0 3c
       0.42210838 -0.43799627 0.4813725 0.019594127
0001e0 d3 7f 12 3e 7f 4c e0 3d f5 9c eb bd 60 8b 9d be
       0.14306574 0.109520905 -0.115045466 -0.30770397
0001f0 78 56 33 3e 00 e3 08 bf db dc 07 bf 5f 1b 58 be
       0.17513454 -0.53471375 -0.53071374 -0.21104191
000200 68 20 d6 be b7 86 80 be 72 1a f4 3e d6 6c 4d 3e
       -0.418216 -0.2510278 0.47676426 0.20061049
000210 04 c6 ca be 60 b2 a2 3d 3d 38 f1 3e 04 4a 65 be
       -0.396042 0.079441786 0.4711322 -0.22391516
000220 1a ee a1 be 5b 7d e0 bd e3 0d d3 be ad 55 c2 be
       -0.3162697 -0.1096141 -0.41221532 -0.3795599
000230 48 1e 82 be b3 c5 bd 3e 44 dd 33 3e 95 9d ce be
       -0.25413728 0.37064895 0.17564875 -0.403546
000240 be 91 39 3f 21 2e 55 3e 3b 89 9b 3e b3 3b 65 bf
       0.7248801 0.20818378 0.30378136 -0.8954422
000250 69 37 a2 bd d2 b1 67 be 9e f4 27 3f 66 dc 6a 3e
       -0.07920725 -0.22626427 0.6560763 0.22935638
000260 a5 23 0a 3d 9e 2a 00 bd 35 c6 e2 be 25 8b cb be
       0.0337254 -0.031290643 -0.44291845 -0.39754596
000270 c8 2a cf 3d f0 1e c8 be a8 f9 76 be a0 da a2 3e
       0.10115582 -0.39086103 -0.24118674 0.31807423
000280 c8 fc e9 3e cc f7 f6 bd 81 04 59 3e d0 13 d9 be
       0.4570067 -0.12058982 0.21193124 -0.42397928
000290 5d 45 00 bf 21 1d 1e bf 63 06 0b bf 88 7e c0 3e
       -0.5010584 -0.617632 -0.5430662 0.37596536
0002a0 35 5d 25 be a1 da b4 be 54 c1 ce 3c 70 f6 02 bf
       -0.16148837 -0.3532305 0.02523867 -0.51157284
0002b0 22 8c d2 bd e6 de 04 bf b9 81 8d be 65 4a 29 3e
       -0.102806345 -0.51902616 -0.27638033 0.16532286
0002c0 69 93 6f be 14 6e 4a 3f cb ba 26 be f2 97 32 3e
       -0.23396076 0.79074216 -0.16282193 0.17440775
0002d0 2c c9 9b 3e 12 8a e6 bc 06 ed bf be b7 2a ab 3d
       0.3042692 -0.028142009 -0.37485522 0.083577566
0002e0 fc 50 42 3e 51 44 2e 3f 9e ba fe be 1d 1c 45 3e
       0.18976206 0.6807299 -0.49751753 0.19249006
0002f0 0e 07 07 bf 4c 3d b3 3e c4 10 c0 3e bc 68 47 3e
       -0.5274514 0.35007703 0.3751279 0.19473547
000300 c6 47 9e be fc 1f 12 3f 29 04 91 be 41 d4 62 bf
       -0.30914134 0.57080054 -0.28323486 -0.88605124
000310 f5 49 49 3f 41 df 84 3e 3c 16 1d 3e b3 7b 18 bf
       0.78628474 0.2595158 0.15340513 -0.5956375

hidden2.bias f4 [10]
000000 6a ca 97 be 2b 14 4c be a6 49 37 be e6 22 8c 3e
       -0.29646617 -0.19929568 -0.17899188 0.27370375
000010 74 7a 68 bb 5d ad d4 bb 7e 20 fe 3d 26 2a a3 bd
       -0.0035473378 -0.006490393 0.12408541 -0.079670236
000020 ad 12 d2 3c 11 06 20 3e
       0.025643671 0.15627314

hidden3.weight f4 [1, 10]
000000 c8 ce 27 bf 75 2a d6 bf 4a 13 c7 bf 8e 4e 70 bf
       -0.655499 -1.6731707 -1.5552762 -0.93869865
000010 bb 92 02 c0 19 b2 a4 3f 7a 2a 95 be da 20 b9 3f
       -2.0402057 1.2866851 -0.2913397 1.446315
000020 ce 80 8a 3f 5c 6e b5 bf
       1.0820558 -1.4174304

momentum_buffer f4 [20, 26]
000000 ae d7 33 3d ea 41 dd bc b9 26 4b bc 09 8e 81 3c
       0.04390686 -0.02700897 -0.012399369 0.015814798
000010 de 2d 69 3c 67 f8 4f 3d 5b 05 80 3c b6 ba 6c 3c
       0.014232127 0.050774004 0.015627554 0.014448812
000020 de e3 a4 bc b2 7c 0d 3d e7 ed c9 3c c0 59 17 3c
       -0.020128187 0.034542747 0.024649573 0.009237707
000030 3c d0 45 3c 56 18 4a 3c ef 6a 21 3b 46 8d ac bc
       0.012073573 0.012334904 0.0024630388 -0.021063458
000040 00 00 00 00 0a c8 6d 3c 00 00 00 00 22 89 9c bc
       0.0 0.014513025 0.0 -0.019108359
000050 00 00 00 00 47 13 2c bd 00 00 00 00 52 58 2e 3d
       0.0 -0.04201057 0.0 0.042564698
000060 00 00 00 00 80 18 74 bd f6 3d 63 be c4 c8 07 3d
       0.0 -0.059593678 -0.22191605 0.03315045
000070 5c 86 ab bd af c5 e0 bb af 2a e0 bc d4 2e 37 bc
       -0.083752364 -0.006859503 -0.027364103 -0.011180598
000080 f0 65 3a bc fa 01 29 bc 9b 07 3a bc 9c b1 d6 bb
       -0.011376843 -0.010315413 -0.011354352 -0.0065519344
000090 a6 6b ac bc 61 1b d8 bb 96 82 19 bc 77 98 61 bc
       -0.021047425 -0.0065950607 -0.009369513 -0.013769261
0000a0 36 7b e6 ba b6 22 2c 3e 00 00 00 00 65 b6 47 bc
       -0.0017584327 0.16810116 0.0 -0.012189482
0000b0 00 00 00 00 ed f9 cf 3d 00 00 00 00 b8 57 04 3c
       0.0 0.101550914 0.0 0.008077554
0000c0 00 00 00 00 02 0f d5 3d 00 00 00 00 33 03 7c bd
       0.0 0.10403253 0.0 -0.06152649
0000d0 d4 95 94 bd fc 47 17 bd 14 22 8a bd ec 72 30 bc
       -0.0725514 -0.036933884 -0.06744781 -0.010769587
0000e0 52 38 3d bc 8e f4 2a bd 44 b8 56 bc e4 50 83 bc
       -0.011549072 -0.04173713 -0.013105456 -0.016029783
0000f0 d4 83 e2 3c 46 0e f0 bc 66 eb ef bc d4 2c 20 bb
       0.027650751 -0.029303681 -0.029287051 -0.0024440782
000100 b3 83 24 bc 22 69 f5 bc b0 fc 02 bb 69 a8 98 3d
       -0.010041165 -0.029957358 -0.001998704 0.07453997
000110 00 00 00 00 50 97 32 bc 00 00 00 00 4f ab 88 3d
       0.0 -0.0109003335 0.0 0.066732995
000120 00 00 00 00 4a 4c 2c bd 00 00 00 00 d8 b2 d3 bb
       0.0 -0.042064942 0.0 -0.006460529
000130 00 00 00 00 5f 58 6f bd bd 27 58 3e d5 9c 03 3e
       0.0 -0.058433887 0.21108909 0.12852795
000140 17 76 0d 3e 92 a7 ab 3b 16 2e cf 3b 60 bf 6c 3c
       0.13814579 0.005238482 0.0063226325 0.014449924
000150 81 fc 27 3c c9 c8 c5 3c 3b 74 07 bc 62 70 da 3c
       0.010253073 0.024143593 -0.008267458 0.026664916
000160 b0 54 0a 3c 02 1d d9 3b 7a e4 01 3c 77 a5 62 3c
       0.008443043 0.0066257725 0.007928008 0.013833395
000170 ff 8d e7 3a 60 99 c4 3c 00 00 00 00 ef 36 d1 3b
       0.001766622 0.023998916 0.0 0.0063847224
000180 00 00 00 00 00 44 36 3a 00 00 00 00 ff 55 61 3d
       0.0 0.0006952882 0.0 0.055013653
000190 00 00 00 00 06 16 e7 bd 00 00 00 00 16 a4 0d 3e
       0.0 -0.112834975 0.0 0.13832125
0001a0 ce 62 a5 3d 65 43 0b bc b2 9d 80 3d 6b 2d 02 3c
       0.08075486 -0.008499955 0.06280078 0.007945399
0001b0 13 bb 12 3c 89 c4 e1 3c 6a 9c 2d 3c 31 d8 fe 3c
       0.008955735 0.027559536 0.010596374 0.031108947
0001c0 5d 35 31 3c 9a 8a 81 bb ec 97 b2 3c cc bc 97 3b
       0.010815945 -0.00395329 0.021800958 0.0046306606
0001d0 d5 2f 12 3c de 16 51 3c 20 b0 d3 3a 71 5e 47 bd
       0.008922537 0.0127618 0.0016150512 -0.04867405
0001e0 00 00 00 00 7d 2b 90 3c 00 00 00 00 b2 11 1f bd
       0.0 0.017598862 0.0 -0.038835235
0001f0 00 00 00 00 79 aa 8e bc 00 00 00 00 40 85 87 bc
       0.0 -0.017415272 0.0 -0.01654303
000200 00 00 00 00 74 98 c8 bb 55 f2 21 3e 8d 9d fe 3d
       0.0 -0.0061216895 0.15815099 0.12432394
000210 42 bc 6e 3d 94 4f af ba 00 a9 43 39 82 4e 97 3e
       0.058285005 -0.0013375157 0.00018659607 0.29552084
000220 10 f9 81 3a 65 14 aa 3b c0 61 62 39 10 c9 f6 3b
       0.0009916145 0.0051904195 0.00021589454 0.0075312927
000230 6d 6a 25 bc 00 fe fd 38 80 bc 34 39 50 df 20 3c
       -0.010096175 0.00012111291 0.0001723636 0.009818867
000240 c0 71 07 38 21 8f 37 be 00 00 00 00 ce 92 80 bc
       3.2292446e-05 -0.17925693 0.0 -0.015695002
000250 00 00 00 00 74 18 24 bd 00 00 00 00 1c 70 9c 3d
       0.0 -0.040062383 0.0 0.07638571
000260 00 00 00 00 79 11 a1 bd 00 00 00 00 bf 65 17 3e
       0.0 -0.07864661 0.0 0.14784907
000270 11 e8 12 3d 6b c8 fc 3c a1 0d 87 3d 09 6d eb bb
       0.035865847 0.030857285 0.065943964 -0.007184629
000280 f1 68 f8 bb af bd 68 bc 97 90 08 bc af 6f f4 bb
       -0.0075808694 -0.01420538 -0.008335254 -0.007459603
000290 95 95 a5 3c 65 68 ab bc 9e 5e 17 bd aa 65 0c 3b
       0.020212928 -0.020923803 -0.03695547 0.0021422901
0002a0 4a a6 c8 bb d0 a9 99 bb 88 b9 9f ba 1b ac 3c bd
       -0.006123339 -0.0046894327 -0.001218603 -0.04606257
0002b0 00 00 00 00 14 6c 29 bc 00 00 00 00 97 b7 b2 bc
       0.0 -0.010340709 0.0 -0.021816058
0002c0 00 00 00 00 71 8f aa 3c 00 00 00 00 23 36 17 bd
       0.0 0.020820351 0.0 -0.036916863
0002d0 00 00 00 00 6f b3 54 3d 07 d6 9c bc bb e8 b3 bd
       0.0 0.051928934 -0.019145025 -0.08784624
0002e0 2a 5a 51 bc 94 03 89 bb 93 2b 14 ba 82 10 13 bc
       -0.012777844 -0.0041813347 -0.0005652245 -0.008976104
0002f0 86 9d a5 bb 6a c3 95 bb 6f e1 2e bd b3 68 52 bc
       -0.0050541786 -0.0045704143 -0.04269546 -0.012842345
000300 98 b4 83 bc de 7f 3f bb fe 7c 84 bb 32 03 a5 bb
       -0.016077325 -0.0029220502 -0.0040432205 -0.0050357813
000310 b4 3c 4c ba 7c 6e 32 bd 00 00 00 00 74 68 b4 bb
       -0.0007791028 -0.043562397 0.0 -0.005505616
000320 00 00 00 00 04 96 8b 3c 00 00 00 00 72 0f a4 bb
       0.0 0.017039306 0.0 -0.005006724
000330 00 00 00 00 da 1c c0 3c 00 00 00 00 0c 8d d7 bc
       0.0 0.023451257 0.0 -0.026312374
000340 6a 83 fa bd 00 b5 69 b8 30 30 89 3c f5 f6 a7 ba
       -0.122320965 -5.57201e-05 0.01674661 -0.0012814688
000350 9d f9 a5 3c 36 d0 55 be 00 83 fa b9 bb e2 d5 bc
       0.020260626 -0.20880207 -0.00047781318 -0.02610909
000360 7c 3e ca 3c 68 af 79 3c 7b f6 56 3d e9 85 14 bc
       0.024687998 0.015239574 0.052481156 -0.00906513
000370 6e 7c 40 bb 26 84 1e bc 6f 91 88 b9 5f 39 e6 3d
       -0.002937104 -0.009675061 -0.00026048298 0.112414114
000380 00 00 00 00 c6 99 9d bb 00 00 00 00 cd da 61 3d
       0.0 -0.004809591 0.0 0.055140305
000390 00 00 00 00 b3 32 02 3c 00 00 00 00 9a 4d e5 3d
       0.0 0.007946658 0.0 0.11196442
0003a0 00 00 00 00 b3 45 62 bd 98 fd 82 3d 08 77 56 3c
       0.0 -0.05524225 0.063960254 0.013089903
0003b0 45 b3 95 3c c0 8c 23 3b f9 6d 95 bc 58 ce a4 3c
       0.018273959 0.002495572 -0.018240916 0.020117924
0003c0 58 77 71 3a 04 8f 97 3c 04 7b ef bd a8 ab 17 bd
       0.0009211204 0.018500812 -0.11693385 -0.03702894
0003d0 62 c5 c9 bc 28 14 fe ba 82 9f 2c 3b 62 0c 59 3c
       -0.024630252 -0.0019384669 0.0026340191 0.013247581
0003e0 e4 b9 88 39 74 9d fc 3b 00 00 00 00 f7 b4 b1 ba
       0.0002607844 0.0077091996 0.0 -0.001355796
0003f0 00 00 00 00 53 a2 a8 3c 00 00 00 00 d1 92 98 3c
       0.0 0.020585215 0.0 0.018624695

momentum_buffer f4 [20]
000000 44 43 04 be 27 da bc 3d 28 a8 d6 3d 50 bb bd bd
       -0.12916285 0.09221297 0.10481292 -0.09264243
000010 0c 74 ad bd e0 f3 dd ba 23 e0 82 3d 21 59 27 3d
       -0.084694 -0.0016933642 0.06390407 0.040856484
000020 8a cd 5f 3c de 0f 60 bc 5a 80 3d bd 8e 80 22 be
       0.013659844 -0.013675658 -0.046264984 -0.15869352
000030 9d d8 f8 3c 2b fc 1c 3c 1c 23 67 3c 82 3b 2c 3d
       0.030376727 0.009581606 0.014107492 0.04204894
000040 64 37 aa 3c f4 cb f7 bd 79 a7 12 3e 97 c6 5f 3e
       0.020778365 -0.12099448 0.14321698 0.218531

momentum_buffer f4 [10, 20]
000000 e8 1d 23 bb be 11 20 3d 41 a8 13 bd 9a 1a e2 3c
       -0.0024889652 0.03907942 -0.03604913 0.027600575
000010 50 cc 8b bd 57 8e 90 3d 82 ff f4 bb 00 0c 3d bb
       -0.06826079 0.07058399 -0.007476748 -0.0028846264
000020 18 c4 ce 3c c4 4e f5 3c ba 1c 5c 3d 73 db 2d bd
       0.02523999 0.029944785 0.053738333 -0.04244561
000030 24 09 83 3d e0 05 4c 3a fe 5c b5 3c 55 de 5a bc
       0.06398228 0.0007782858 0.022139069 -0.013358672
000040 66 d4 49 3c d4 10 64 3c 68 d4 62 bc ad d6 83 bc
       0.012318706 0.013920028 -0.013844587 -0.016093576
000050 f6 38 8f 3d e0 8f 02 3e 75 fc c7 bc 96 48 e6 3c
       0.06993286 0.12750196 -0.024412373 0.028110784
000060 d1 a2 38 3c 8e 1a f1 3d 85 72 89 3c ca 1d 57 3d
       0.011269287 0.11772643 0.01677824 0.052518643
000070 f2 85 55 3d d2 2f 06 3e c4 89 f8 3c b8 7b a6 bd
       0.052129693 0.1310418 0.03033913 -0.08129066
000080 9c 8a 01 3e c0 e0 ef 3c 10 fb ad 3d 91 a1 1f bd
       0.12650532 0.029281974 0.08495152 -0.03897244
000090 e6 04 61 bd cc 3a 02 3d ef 65 83 bd 13 83 15 bd
       -0.054936312 0.031794354 -0.06415927 -0.036501955
0000a0 b6 70 1a 3d f9 52 c4 3d c4 8d 3f bd 83 7b cf 3c
       0.037705146 0.09586138 -0.046766058 0.02532745
0000b0 1b 03 45 3c b9 ea c9 3d 38 e9 c2 3d 46 e0 16 3d
       0.012024666 0.09859223 0.09517139 0.036834978
0000c0 00 45 86 3d e5 61 91 3d 88 7f 98 3d cb 48 43 bd
       0.065561295 0.0709875 0.074462 -0.047676843
0000d0 d0 dc d7 3d 96 12 5f 3d c7 52 a4 3d 28 5d 5d bd
       0.105401635 0.054461084 0.08023601 -0.05404392
0000e0 74 f0 cc bb 71 d4 16 3d f6 ad 1e bd 1c 09 91 3c
       -0.00625425 0.036823694 -0.03874012 0.017704539
0000f0 e4 48 95 bc c8 11 83 3b db a1 a6 bd 30 b5 cd bc
       -0.018223234 0.0039999224 -0.0813634 -0.025110811
000100 e4 25 08 be bf d5 8d bd 64 a6 a2 3c 3c 6d 62 bd
       -0.13295704 -0.069255345 0.019854732 -0.055279955
000110 d4 75 0f bc 27 43 0d 3d 39 a1 9a bc d3 07 0e be
       -0.00875612 0.03448787 -0.018875705 -0.13870172
000120 52 6d d3 3c 40 fe 81 bc 96 76 0f bd a9 60 9f bd
       0.025808964 -0.015868306 -0.0350252 -0.07782108
000130 af 37 97 bd 91 f8 2c bd 3f 40 9c bd 84 0d a4 bd
       -0.07383668 -0.04222924 -0.076294415 -0.080103904
000140 08 8b ee bd 5e 76 35 3d 31 fa 46 be da bb 9d bd
       -0.11647612 0.044302337 -0.19431378 -0.077018455
000150 aa f1 99 be 10 30 9b 3b db ba b4 bd 43 1d 33 be
       -0.30067188 0.004735954 -0.08824702 -0.17491631
000160 5f 73 16 bd c0 58 6c 3a 92 32 5f 3d 42 77 87 be
       -0.03673112 0.00090159103 0.054491587 -0.26458174
000170 5a 01 ca 3d 94 1d 4a bd a5 52 b4 bd e8 84 a9 bd
       0.09863539 -0.049344614 -0.08804826 -0.08277303
000180 df 91 bc bd 2e db dd bd d2 1d 8c bd a5 89 62 be
       -0.0920751 -0.10832821 -0.06841625 -0.2212282
000190 54 98 9d 3c 72 b6 fa bc 24 53 43 3d 4b 22 92 3c
       0.019237675 -0.030604575 0.04768671 0.017838618
0001a0 78 33 91 3b 85 24 32 bd 05 9d 14 bc 10 52 fe 3b
       0.0044311844 -0.04349186 -0.0090706395 0.0077612475
0001b0 3a 90 0a 3b 58 78 09 bc 7a 0d cb bc 86 e1 b9 3d
       0.0021143095 -0.008390509 -0.0247867 0.09076218
0001c0 bc 76 0f bd 2f b0 80 3b 66 91 50 3c 61 d1 4e 3d
       -0.035025343 0.0039272527 0.012729978 0.050492648
0001d0 5a 45 67 3d f2 43 d7 3c 9f b3 58 3d 81 90 ba 3c
       0.056462623 0.026277516 0.052905675 0.022773983
0001e0 e0 30 04 bb 92 d4 f1 3a bb 07 d6 bb 1c 95 da 39
       -0.0020170733 0.0018450192 -0.0065316833 0.00041691295
0001f0 30 9d 40 bc be d4 91 ba ec 0d 9c b9 9a ad a6 3a
       -0.011756226 -0.0011126024 -0.0002976501 0.0012716532
000200 f1 c6 42 3b 10 34 01 bb fc 28 1e 3c 91 a3 8e bb
       0.002972063 -0.001971487 0.009653326 -0.0043529947
000210 c0 d8 3b 3b 6f 90 29 3b a2 61 10 ba d2 0a 7c 39
       0.0028663129 0.0025873443 -0.00055077125 0.00024036624
000220 2e 4a b5 3b 13 ed b0 39 6a 00 47 bb a2 e1 f3 ba
       0.0055325245 0.0003374597 -0.0030365237 -0.0018606673
000230 62 75 a3 3c cc 3c f3 bc 86 f6 f0 3d 41 3e 91 3d
       0.019953433 -0.029692076 0.117657706 0.07091952
000240 5c 95 2c 3e 80 a2 1a b9 8d 3d 7e 3c cf ec 4d 3d
       0.16853851 -0.0001474712 0.015517605 0.050274666
000250 3f 94 c8 3c 59 8d 66 bc 8b ca 16 bc af 74 1e 3e
       0.024484752 -0.014071786 -0.009203563 0.15474199
000260 54 c1 da bc 8d da e7 3b ae 8a 59 3d 28 72 61 3d
       -0.026703514 0.007075614 0.05311077 0.05504051
000270 45 89 bd 3d b5 e8 df 3c 28 fb a7 3d d7 df 99 3d
       0.09254698 0.027332643 0.08202201 0.07513397
000280 b8 b6 48 bc 29 1b 70 bb 8a 81 6f 3c 48 20 27 3c
       -0.012250595 -0.0036637282 0.014618287 0.010200568
000290 eb 0c 4f 3c de 19 c8 3c 92 30 db 3b f0 35 02 3c
       0.012637357 0.024426397 0.0066891396 0.00794743
0002a0 12 f9 52 3b 62 2d 48 bc a9 7d d7 bc 86 9a 4b 3c
       0.0032191915 -0.012217851 -0.026305037 0.012426978
0002b0 84 7c e1 bb d2 8f 11 3d c7 33 3d 3c 74 5a f1 3c
       -0.0068812985 0.03553755 0.011547989 0.029462077
0002c0 8a e4 8b ba 64 76 c1 3c 13 57 55 bc 94 4f 03 3d
       -0.0010672968 0.023616023 -0.013021248 0.032058313
0002d0 f8 de a3 bb a7 dd ba 3d 10 70 f6 bd 8e fa e8 3c
       -0.005000945 0.09124308 -0.12033093 0.028439786
0002e0 d7 de c4 bd 59 64 14 3d aa e7 9a 3b 48 31 a9 bb
       -0.09612816 0.03622851 0.0047273235 -0.0051633455
0002f0 35 22 89 3d b7 67 05 3e c0 01 a0 ba f9 a6 33 be
       0.066959776 0.13027845 -0.0012207553 -0.17544164
000300 18 02 a4 3d 8c 62 0f bd 1b 76 1e 3d 27 4e 62 bd
       0.08008212 -0.03500609 0.038686853 -0.055250313
000310 b8 a2 ec bd 08 4a eb bb 19 17 c1 bd 18 95 b3 bd
       -0.11554474 -0.007180456 -0.09428234 -0.08768672

momentum_buffer f4 [10]
000000 fb ea e4 3c 81 ab e7 3d 31 f4 81 3d 29 90 e4 bd
       0.027944079 0.11312009 0.06345404 -0.11160309
000010 c6 e0 28 be fb 2b 0b bc e8 fe 5c ba a6 0c 5a 3d
       -0.16491994 -0.0084943725 -0.0008430318 0.05323472
000020 71 87 fa 3c 5c 05 a5 bb
       0.030582162 -0.0050360393

momentum_buffer f4 [1, 10]
000000 ec a8 3b bc 40 95 30 3d 76 83 36 3d 5c 17 26 3e
       -0.011453848 0.043111086 0.044558965 0.16219848
000010 d6 84 97 3d 9e 6f 6c bc 38 9d 2e bb cf e8 ed 3c
       0.07398383 -0.0144309085 -0.0026644003 0.029041676
000020 14 f2 98 bc 88 c5 db 3c
       -0.01867012 0.026827589
