model.pth (torch, 10213 bytes, 10 tensors)

hidden1.weight f4 [20, 26]
0	0xbf8632c1	-1.0484239
1	0x3eb45724	0.35222733
2	0x3eda98a9	0.42694595
3	0xbeaf2614	-0.3420874
4	0x3f1eba91	0.6200343
5	0xbeb175c2	-0.34660155
6	0x3e148579	0.14504041
7	0xbe17b971	-0.14816834
8	0x3e36089b	0.1777672
9	0xbe9ac3f7	-0.30227634
10	0xbdc64257	-0.09680622
11	0xbe870932	-0.26374203
12	0x3e8a4a48	0.27009797
13	0xbe8bf41f	-0.27334687
14	0xbeafe20c	-0.34352148
15	0x3eeb52df	0.45961663
16	0x3e3a8ba4	0.18217331
17	0x3efc4503	0.49271402
18	0x3dff2990	0.12459099
19	0xbf39de22	-0.7260457
20	0xbee3ce28	-0.44493222
21	0xbf754846	-0.95813406
22	0x3db50050	0.0883795
23	0x3e2403b8	0.16017044
24	0xbed51caa	-0.4162343
25	0x3b89ddc6	0.0042073457
26	0x3ef4527c	0.4771918
27	0x3e868a80	0.26277542
28	0xbeb51d25	-0.35373798
29	0xbeab75d4	-0.33488333
30	0xbe07f2f8	-0.13276279
31	0x3e786102	0.24255756
32	0xbea306e3	-0.31841192
33	0xbe979082	-0.29602438
34	0x3ee39141	0.44446757
35	0xbec5306f	-0.38513514
36	0xbf4c128a	-0.7971579
37	0x3f006e3f	0.5016822
38	0xbf03cc40	-0.51483536
39	0xbefe706f	-0.49695155
40	0xbeb2087e	-0.34772104
41	0xbf0cc29f	-0.5498447
42	0x3c802100	0.015640736
43	0x3eeea4f6	0.4661023
44	0xbe7d55c4	-0.24739748
45	0x3f64a380	0.8931198
46	0x3d8ffff8	0.07031244
47	0x3f25e761	0.6480618
48	0xbdb3345c	-0.08750221
49	0x3f2c641a	0.6734024
50	0x3d5843b0	0.052798927
51	0x3f5e120c	0.8674629
52	0xbfce5472	-1.6119521
53	0xbefc2796	-0.49248952
54	0x3ead8c28	0.33895993
55	0xbef11e85	-0.47093597
56	0xbed42042	-0.4143086
57	0xbee04aea	-0.43807155
58	0xbeb33347	-0.3500006
59	0x3e03a2d1	0.12855078
60	0xbe43cd0f	-0.19121192
61	0xbd0334d3	-0.0320328
62	0x3cdd03a2	0.026979271
63	0x3dbcb353	0.09213891
64	0x3dfa3ee6	0.12219028
65	0xbefd9bc7	-0.4953291
66	0x3e97928e	0.29604
67	0xbf1f13e1	-0.6213971
68	0x3e9c5540	0.3053379
69	0x3f2b9969	0.6703096
70	0x3bbf1980	0.0058318973
71	0xbd1c82db	-0.03821073
72	0xbec90c60	-0.39267254
73	0x3ecf73c9	0.40518025
74	0x3eafbb0c	0.34322393
75	0xbf4c820e	-0.7988595
76	0x3e1e36cc	0.15450591
77	0x3f070fba	0.5275837
78	0x3d9aaac2	0.07552101
79	0x3e9e584d	0.30926743
80	0x3eaa5456	0.33267468
81	0xbd09c961	-0.033639316
82	0x3d8dbc42	0.06920673
83	0xbd6e7239	-0.0582144
84	0x3d41b792	0.047294207
85	0x3e884f4f	0.26623008
86	0xbe7b88d3	-0.24563913
87	0x3f507aae	0.81437194
88	0xbe722c3a	-0.23649684
89	0xbd37cb14	-0.044871405
90	0x3f07408f	0.52832884
91	0x3d65818b	0.056031745
92	0x3e51ce11	0.20488764
93	0x3c8ed05c	0.017433338
94	0x3ec8e834	0.39239657
95	0xbf0b2362	-0.54350865
96	0xbe62da88	-0.22153676
97	0x3d99bb74	0.07506457
98	0xbe7fb393	-0.24970846
99	0xbfa28ed7	-1.2699841
100	0x3dfac5b8	0.12244743
101	0x3cb92621	0.02260119
102	0xbd9e9650	-0.077435136
103	0xbfa48450	-1.2852879
104	0x3eab9c4d	0.33517686
105	0xbe24b570	-0.16084838
106	0x3db9de8f	0.09075653
107	0x3e9af279	0.30263117
108	0x3e97eda0	0.2967348
109	0x3efe0398	0.49612117
110	0xbeb11c8f	-0.345921
111	0x3dbf11a7	0.09329539
112	0x3ea8ca9e	0.32967085
113	0xbd97dc70	-0.07415092
114	0x3ef031ad	0.469129
115	0x3e96151f	0.2931299
116	0x3eea1931	0.45722345
117	0x3d872a8c	0.06599912
118	0xbe88870d	-0.26665536
119	0xbcf78c5d	-0.030218298
120	0xbe6cbe12	-0.23119381
121	0xbed2a354	-0.41140234
122	0x3d4c7300	0.04991436
123	0xbe29f436	-0.16597065
124	0x3eef3556	0.4672038
125	0x3c45e84b	0.012079309
126	0x3dde7f70	0.108641505
127	0x3eeb884e	0.4600243
128	0x3dddc5d8	0.10828751
129	0x3e07cfbb	0.13262837
130	0x3e7d299c	0.24722904
131	0x3e7e3b17	0.24827228
132	0x3f291ae7	0.66056675
133	0xbe38cc92	-0.18046787
134	0x3c67fcbc	0.014159378
135	0x3f1d3d7f	0.6142196
136	0xbdf35f29	-0.11883385
137	0xbe99c253	-0.3003107
138	0x3ebc86ab	0.36821494
139	0x3e543ee3	0.20727114
140	0xbeb2b8f0	-0.3490672
141	0x3e1d6082	0.15368846
142	0x3e6fbd8f	0.23412155
143	0xbddbfca7	-0.10741549
144	0xbed38e12	-0.4131933
145	0xbf0463b4	-0.51714635
146	0x3e48f010	0.19622827
147	0xbec3e467	-0.38260195
148	0x3e8f2336	0.2795655
149	0xbd83a7de	-0.064285025
150	0xbddd0f44	-0.10793927
151	0xbe18b663	-0.14913325
152	0x3e284580	0.16432762
153	0x3e977ec8	0.29588914
154	0x3e86fb7c	0.26363742
155	0xbe1a3d91	-0.15062548
156	0xbf27d04f	-0.6555223
157	0xbea66510	-0.3249898
158	0x3f2473c2	0.6423913
159	0x3f10eabe	0.5660819
160	0x3e5a2bea	0.21305814
161	0x3d7b1a58	0.06130442
162	0x3f06ddec	0.52682376
163	0xbedae10d	-0.42749825
164	0xbecae618	-0.39628673
165	0xbed6ddac	-0.41965997
166	0xbf1e605d	-0.6186579
167	0x3ebe5d0a	0.37180358
168	0x3deb473a	0.11488195
169	0x3edb14a2	0.4278918
170	0xbe1dbc6c	-0.15403908
171	0xbee227ee	-0.4417109
172	0x3e929544	0.28629506
173	0xbecf6c28	-0.40512204
174	0x3e5af678	0.21383083
175	0xbee70a17	-0.45124885
176	0x3da766e8	0.08173925
177	0x3eeccf55	0.46251932
178	0x3e706c8c	0.23478907
179	0xbfac1cc1	-1.3446275
180	0xbda519e0	-0.08061576
181	0x3fc9605c	1.5732532
182	0x3f52d8ed	0.8236225
183	0xbfcd06bc	-1.601768
184	0xbd6f9483	-0.05849124
185	0x3efb47de	0.49078268
186	0xbe6de559	-0.2323202
187	0x3f0cfac8	0.5507016
188	0x3f17d185	0.59304076
189	0x3e0df92f	0.13864587
190	0xbc3b4ca8	-0.0114318505
191	0xbeaead15	-0.34116426
192	0x3e268404	0.16261297
193	0x3ef321fe	0.4748687
194	0xbeac449e	-0.336461
195	0x3db3310f	0.087495916
196	0x3cac4211	0.021027597
197	0xbee49f0f	-0.44652602
198	0x3ef4b374	0.47793162
199	0x3f0e3ff8	0.5556636
200	0x3ea40164	0.3203231
201	0x3eede94d	0.46467057
202	0x3eb9f73a	0.3632143
203	0x3d97b4ca	0.0740753
204	0xbdebf3c8	-0.11521107
205	0xbf29b3d2	-0.6629001
206	0x3ee15d38	0.44016433
207	0x3f146a09	0.57974297
208	0x3f7566e7	0.9586014
209	0xbe84db10	-0.2594838
210	0x3e0574e4	0.13032871
211	0xbcb83c4e	-0.022489693
212	0x3e7257ed	0.23666354
213	0xbf1540a3	-0.5830175
214	0xbe9e7827	-0.30951044
215	0xbe9c2124	-0.30494034
216	0xbed9bb1d	-0.4252557
217	0x3de20da5	0.11037759
218	0x3f25659e	0.6460818
219	0x3e721d55	0.23644002
220	0x3e98f750	0.29876184
221	0xbe4aeadd	-0.19816156
222	0x3ee9617f	0.45582196
223	0xbeeb8a7e	-0.460041
224	0x3d374ae0	0.04474914
225	0xbd5d12fe	-0.05397319
226	0xbe116fb8	-0.14202774
227	0x3f661dc4	0.8988917
228	0xbe2697f6	-0.16268906
229	0xbf426dcf	-0.75948805
230	0xbdff85fc	-0.12476727
231	0x3da86552	0.0822245
232	0xbe83f430	-0.25772238
233	0xbf5f80f1	-0.87306124
234	0xbda2da94	-0.07951847
235	0x3e84370c	0.25823247
236	0x3f60b9cd	0.8778351
237	0xbe1c0cb1	-0.15239216
238	0x3f04b98a	0.5184561
239	0x3c8a602d	0.016891563
240	0x3eb3bf0a	0.3510669
241	0xbe9dae22	-0.30796915
242	0x3d876e4f	0.066128366
243	0xbf45cc09	-0.7726446
244	0xbe8f31b3	-0.27967605
245	0xbe1c0072	-0.15234545
246	0xbe3368ef	-0.17520498
247	0xbf12a2af	-0.57279485
248	0xbe602f12	-0.21892956
249	0xbf024736	-0.5088991
250	0xbea56f80	-0.3231163
251	0x3d85b518	0.065286815
252	0x3e786bec	0.24259919
253	0xbf273d7e	-0.65328205
254	0x3e8845da	0.26615793
255	0xbf5d913d	-0.8654974

hidden1.bias f4 [20]
0	0x3e840532	0.25785214
1	0x3e8164a1	0.25272086
2	0x3f0cdeb0	0.55027294
3	0xbf7ecf27	-0.9953484
4	0xbe18c5f2	-0.1491926
5	0x3d54a1ea	0.051912226
6	0xbde1e71f	-0.11030411
7	0x3d481d39	0.048855994
8	0x3f530c7b	0.8244092
9	0x3f1673a6	0.58770216
10	0xbe188235	-0.1489342
11	0x3ea6659e	0.32499403
12	0xbe97f08a	-0.29675704
13	0xbd9709e5	-0.07374934
14	0xbcd655f8	-0.02616404
15	0x3ea2df83	0.3181115
16	0x3df55934	0.11979905
17	0xbe6de5f4	-0.23232251
18	0x3d5a5c71	0.053310815
19	0xbe721c24	-0.23643547

hidden2.weight f4 [10, 20]
0	0x3f865c39	1.0496894
1	0x3f66a09b	0.90088814
2	0x3f3ebd8e	0.7450799
3	0x3f9f1c88	1.2430582
4	0xbec1c894	-0.3784834
5	0xbf14c0e4	-0.5810683
6	0xbff4b711	-1.9118367
7	0x3f8143d6	1.0098827
8	0x3f4cbbbd	0.79973966
9	0x3f4aca16	0.7921461
10	0xbeb504ce	-0.35355228
11	0xbf591ba5	-0.8480781
12	0x3e0a7e2c	0.13524693
13	0xbf6fe3cc	-0.93706965
14	0xbf96f772	-1.1794264
15	0x3f0bdf32	0.54637444
16	0x3fbb4bd7	1.463252
17	0x3ec3a026	0.3820812
18	0xbfc15b8a	-1.510606
19	0x3f7e716f	0.99391836
20	0x3e97191b	0.2951134
21	0x3f53e86a	0.8277651
22	0xbfaee50f	-1.3663653
23	0xbfc881e4	-1.566464
24	0xbdb194ba	-0.086709455
25	0x3e610c4a	0.21977344
26	0x3de873e5	0.1135023
27	0x3f72ca30	0.94839764
28	0xbd48589f	-0.04891264
29	0x3f8f701c	1.1206088
30	0xbf360793	-0.7110531
31	0x3f4d4fb9	0.8019977
32	0x3ed84f13	0.4224783
33	0x3f1b20fe	0.6059722
34	0xbf02ce43	-0.5109598
35	0xbe8f8292	-0.28029305
36	0x3e2e7678	0.1703738
37	0xbf460670	-0.7735357
38	0x3dba348c	0.09092054
39	0x3d58e0e2	0.05294884
40	0x3e46d98e	0.19418928
41	0x3e9c7be8	0.30563283
42	0xbe910ed3	-0.28331622
43	0x3b616d60	0.0034397468
44	0x3ee0fe81	0.4394417
45	0x3e097ac8	0.13425744
46	0x3f6bc1e9	0.9209276
47	0x3ea9f651	0.33195737
48	0x3f3f44cb	0.74714345
49	0x3e8cab88	0.27474618
50	0xbef49fa7	-0.47778055
51	0xbda38b69	-0.07985575
52	0x3f6c7192	0.92360795
53	0x3f938c88	1.1527262
54	0xbdca4799	-0.098769374
55	0xbf1bfff0	-0.60937405
56	0xbd792287	-0.060823943
57	0xbc9236cc	-0.017848395
58	0x3dc3afe7	0.09555035
59	0xbe3e3810	-0.18576074
60	0x3e847afc	0.2587508
61	0x3e306e07	0.17229472
62	0xbeb9c3ac	-0.36282098
63	0x3ea0ccb5	0.3140618
64	0x3f07ad64	0.5299895
65	0xbe5d100c	-0.21588153
66	0xbeed131a	-0.46303636
67	0xbf18aff6	-0.59643495
68	0x3e989ed3	0.29808673
69	0xbe18a875	-0.14908011
70	0xbe2a215f	-0.16614293
71	0xbe8b6939	-0.27228716
72	0xbd6f26bc	-0.05838655
73	0x3ec23681	0.37932208
74	0xbef7d2fc	-0.48403156
75	0xbe69e93c	-0.22842878
76	0x3e12181f	0.14267014
77	0x3eefd6ee	0.46843666
78	0xbede2494	-0.43387282
79	0xbecd34af	-0.40079257
80	0xbf2b7d83	-0.6698839
81	0xbd3d727f	-0.04625177
82	0xbe976710	-0.29570818
83	0x3f056586	0.5210804
84	0x3ea2cbaa	0.31796008
85	0x3eb5588f	0.35419127
86	0xbe89ada5	-0.26890293
87	0x3fa4d53e	1.2877576
88	0xbd4387dd	-0.04773699
89	0xbf916e36	-1.1361759
90	0x3fe07310	1.7535114
91	0xbf43c287	-0.764687
92	0xbf53a1df	-0.8266887
93	0xbc5e305b	-0.0135613335
94	0xbe16c375	-0.14722998
95	0xbf1107d0	-0.56652546
96	0x3e3b8138	0.18311012
97	0x3e4330ce	0.19061586
98	0xbf0ca9ef	-0.549468
99	0x3f89ea15	1.0774561
100	0x3f5ba4d6	0.85798395
101	0xbf28bd89	-0.6591421
102	0xbe762182	-0.2403622
103	0xbe57b4a9	-0.2106501
104	0xbdd546f6	-0.10413925
105	0x3eb99b87	0.3625147
106	0xbf12abc8	-0.5729337
107	0xbed8ba0a	-0.42329437
108	0xbf53f5d3	-0.82796973
109	0x3f677298	0.9040923
110	0xbf11017b	-0.56642884
111	0x3d8677e2	0.065658346
112	0x3e92dc78	0.2868383
113	0xbf0a633a	-0.5405766
114	0xbe88eae3	-0.26741704
115	0x3f1e3ab4	0.61808324
116	0xbee3eb9b	-0.4451569
117	0xbe0cac38	-0.13737571
118	0x3ee5419b	0.44776616
119	0x3cf63633	0.030055141
120	0xbe7fa2b6	-0.24964413
121	0x3f634f4a	0.8879286
122	0xbfb454d0	-1.4088383
123	0xbe600ea0	-0.21880579
124	0x3f1c8e17	0.6115431
125	0xbe66d48a	-0.22542015
126	0x3f128521	0.5723439
127	0xbf4f35c2	-0.809414
128	0x3ed07de9	0.40721062
129	0xbf675deb	-0.9037768
130	0x3e7dc9dc	0.24784034
131	0x3ee98ca1	0.45615104
132	0xbe4bb4fa	-0.19893256
133	0x3f699a74	0.912513
134	0xbe42f04c	-0.19036978
135	0x3f44ce08	0.7687688
136	0xbf14ba5f	-0.5809688
137	0xbecfb303	-0.40566263
138	0xbf63b296	-0.88944376
139	0xbee6fd84	-0.45115292
140	0xbf69d8a9	-0.9134622
141	0xbf3ad2b2	-0.72977746
142	0x3e19e1a1	0.15027477
143	0x3e6d7288	0.23188221
144	0xbe1340cd	-0.14380188
145	0xbc60a251	-0.013710574
146	0x3d0badd8	0.034101337
147	0xbf92e0ee	-1.1474893
148	0x3fd50e52	1.6644995
149	0xbec8d96b	-0.39228377
150	0xbe8e59e7	-0.27802965
151	0x3e918ad7	0.2842624
152	0x3f943fd6	1.1581981
153	0x3e8a0a97	0.26961204
154	0x3dc0a160	0.0940578
155	0xbeab7c9f	-0.33493516
156	0xbe74a702	-0.23891833
157	0x3e80a0d7	0.2512271
158	0x3f124ffe	0.5715331
159	0xbf8d3f27	-1.1034898
160	0x3e187aa2	0.1489053
161	0xbf2d1ee5	-0.67625266
162	0xbe5b152a	-0.21394792
163	0xbf064ca5	-0.524607
164	0xbf09ec87	-0.5387654
165	0xbf2164c8	-0.63044405
166	0x3f397e8d	0.72458726
167	0x3e8d4a98	0.27595973
168	0xbf18c3b2	-0.5967361
169	0x3d548df6	0.051893197
170	0x3f4ba28c	0.795449
171	0xbe898743	-0.2686101
172	0x3ee11cf8	0.43967414
173	0x3ebcfcfb	0.3691176
174	0xbfa48d4d	-1.2855622
175	0x3e264e52	0.16240814
176	0x3eecbec4	0.46239293
177	0x3f0b4bfb	0.5441281
178	0xbf7e7da9	-0.9941049
179	0x3f663519	0.8992477
180	0xbc56b861	-0.013105483
181	0x3f558a2f	0.83413976
182	0xbf2c45ef	-0.6729421
183	0xbdfce737	-0.12348788
184	0x3e933b93	0.2875639
185	0x3f0c0119	0.54689175
186	0x3e147212	0.1449664
187	0xbeba4e53	-0.36387882
188	0xbe97702d	-0.2957777
189	0x3e372ef6	0.17889008
190	0x3f4f8d6b	0.8107516
191	0xbf8387de	-1.0275838
192	0xbbe2d748	-0.006922636
193	0xbf20b12d	-0.6277035
194	0xbf237c09	-0.6386114
195	0xbec0f217	-0.376847
196	0x3e477120	0.19476748
197	0x3f5b72cc	0.8572204
198	0x3e6a9861	0.2290969
199	0x3c3787ba	0.011201793

hidden2.bias f4 [10]
0	0xbda11f1a	-0.0786726
1	0xbd82baec	-0.06383309
2	0xbe47eaf7	-0.19523226
3	0xbe673d44	-0.22581965
4	0xbebfcc0c	-0.37460363
5	0xbcd053fb	-0.02543067
6	0x3e359fc1	0.17736723
7	0x3ee852f0	0.45375776
8	0xbd10b723	-0.035330903
9	0xbeb8b6a9	-0.3607686

hidden3.weight f4 [1, 10]
0	0x407f0e05	3.9852307
1	0xc027ad11	-2.6199381
2	0xbfb0f3f8	-1.3824453
3	0xbf19a1fe	-0.60012805
4	0xc03c3097	-2.9404657
5	0xbfe53897	-1.7907895
6	0xc027f549	-2.624346
7	0xc02cbdbd	-2.6990807
8	0x401382d3	2.3048599
9	0x3ff98e92	1.9496634

momentum_buffer f4 [20, 26]
0	0xbdb1c8fe	-0.08680914
1	0x3d8f5c54	0.07000032
2	0xbcd7efc7	-0.026359452
3	0xbbd7a0ea	-0.0065804617
4	0xbc2af46a	-0.010434249
5	0xbc712153	-0.014717418
6	0xbc0b0b5e	-0.008486597
7	0xbc007bc0	-0.007842004
8	0xbc1284fe	-0.008942841
9	0xbc891ca6	-0.016737293
10	0xbc848d35	-0.016180614
11	0xbba4634e	-0.005016721
12	0xbbc52eee	-0.0060175573
13	0xbc2ac240	-0.010422289
14	0xbaaf527e	-0.0013376025
15	0xbc569b91	-0.013098613
16	0x00000000	0.0
17	0xbc72180e	-0.014776243
18	0x00000000	0.0
19	0x3d40c9ee	0.047067575
20	0x00000000	0.0
21	0x3bfafeac	0.007659754
22	0x00000000	0.0
23	0x3b335260	0.0027362332
24	0x00000000	0.0
25	0xbc20b94a	-0.009809801
26	0xbb532745	-0.0032219451
27	0x3dc9eeed	0.098600246
28	0xbcf71376	-0.030160647
29	0xbc32c22a	-0.01091055
30	0xbc521d00	-0.012824297
31	0xbcb86228	-0.022507742
32	0xbc703f26	-0.014663493
33	0xbc552800	-0.013010025
34	0xbc73c0a8	-0.014877476
35	0xbce6a5c8	-0.028155223
36	0xbcf22956	-0.029560726
37	0xbc084db8	-0.008319311
38	0xbc231058	-0.009952627
39	0xbc8e435b	-0.017366102
40	0xbb115811	-0.0022177736
41	0xbcf6ca58	-0.030125782
42	0x00000000	0.0
43	0xbc945f44	-0.018111832
44	0x00000000	0.0
45	0x3d82b3b5	0.06381933
46	0x00000000	0.0
47	0x3d5f3a08	0.054498702
48	0x00000000	0.0
49	0x3d0cc4a0	0.034367204
50	0x00000000	0.0
51	0x3ce67d73	0.02813599
52	0xbe3c22fb	-0.18372719
53	0x3ed27f7c	0.41112888
54	0x3ce4302c	0.027855001
55	0x3c1e4cb4	0.009661842
56	0x3c39ee06	0.011348253
57	0x3cb10574	0.021609046
58	0x3c54a190	0.012977973
59	0x3c4d346a	0.0125247035
60	0x3c572106	0.013130432
61	0x3cc9e182	0.024643663
62	0x3ccd991c	0.025097422
63	0x3bf08962	0.007340596
64	0x3c103e76	0.008803954
65	0x3c7bf658	0.015378557
66	0x3b00b5a3	0.0019639514
67	0x3ccab60a	0.024745006
68	0x00000000	0.0
69	0x3c89b5b5	0.016810277
70	0x00000000	0.0
71	0x3e23741c	0.15962261
72	0x00000000	0.0
73	0x3d3fb502	0.046803482
74	0x00000000	0.0
75	0x3e266ce8	0.16252482
76	0x00000000	0.0
77	0xbdb04f3f	-0.08608865
78	0xbd3d554e	-0.04622393
79	0xbcf4b5b6	-0.029871803
80	0xbca43c7f	-0.020048378
81	0xbbb77369	-0.0055984748
82	0xbbd77893	-0.006575653
83	0xbc4c6552	-0.0124753285
84	0xbbf465dc	-0.0074584316
85	0xbb892665	-0.004185485
86	0xbbf94f3f	-0.007608324
87	0xbc74262f	-0.014901682
88	0xbc7a89d6	-0.015291652
89	0xbb8bdb4d	-0.004268086
90	0xbba7e6c8	-0.005123947
91	0xbc112423	-0.008858713
92	0xba9528c6	-0.0011379949
93	0xbc7d8ef6	-0.015475979
94	0x00000000	0.0
95	0xbc0b1955	-0.008489926
96	0x00000000	0.0
97	0xbc96ee78	-0.018424258
98	0x00000000	0.0
99	0xbd6d28e5	-0.05790033
100	0x00000000	0.0
101	0xbd859bc7	-0.06523853
102	0x00000000	0.0
103	0xbd107d20	-0.03527558
104	0x3c25f6e9	0.010129669
105	0xbd4feac2	-0.050760992
106	0x39466f20	0.00018924149
107	0xb9b7ef44	-0.00035082747
108	0x3a8d7433	0.0010792076
109	0xbc083cb2	-0.008315252
110	0xba6a8784	-0.0008946585
111	0xb9dbe778	-0.00041943393
112	0xb9e80fe0	-0.00044262316
113	0xba667978	-0.0008791904
114	0x38ff1180	0.00012162607
115	0xb9882c44	-0.00025972922
116	0xb9a56268	-0.0003154457
117	0xba126974	-0.0005585172
118	0xb8958d84	-7.131233e-05
119	0xba7e2300	-0.00096945465
120	0x00000000	0.0
121	0x3b95a545	0.004566821
122	0x00000000	0.0
123	0xbcc4c01a	-0.024017382
124	0x00000000	0.0
125	0xbd0bc9be	-0.034127943
126	0x00000000	0.0
127	0xbd3dddf3	-0.046354245
128	0x00000000	0.0
129	0xba23b790	-0.00062453095
130	0xbd203c6a	-0.039120115
131	0xbd409663	-0.04701842
132	0x3cdcfd10	0.026976138
133	0x3b9b9b2d	0.004748723
134	0x3bb6c428	0.005577583
135	0x3bc14549	0.005898152
136	0x3bd1035e	0.006378575
137	0x3bb98c82	0.005662502
138	0x3bd3f5db	0.0064685172
139	0x3c46e001	0.012138368
140	0x3c7e0c47	0.015505857
141	0x3b6da856	0.0036263666
142	0x3b8e393f	0.0043403204
143	0x3bf7ac3c	0.0075583737
144	0x3a7d09f8	0.00096526695
145	0x3c578516	0.013154289
146	0x00000000	0.0
147	0x3bce6f79	0.0062999097
148	0x00000000	0.0
149	0xbb8a94fc	-0.004229186
150	0x00000000	0.0
151	0xbd037e0b	-0.032102626
152	0x00000000	0.0
153	0xbcd7f774	-0.026363112
154	0x00000000	0.0
155	0xbbc4ae58	-0.0060022287
156	0x3e4bfecb	0.19921415
157	0xbec58fa9	-0.38586167
158	0xbd3bf1c3	-0.04588486
159	0xbc31e3d4	-0.010857541
160	0xbc2c1de3	-0.010505172
161	0xbcc6edb7	-0.024283273
162	0xbc81e873	-0.01585791
163	0xbc2deb71	-0.010615216
164	0xbc71c096	-0.014755389
165	0xbce21059	-0.027595686
166	0xbcd3be18	-0.02584748
167	0xbc072cf2	-0.008250462
168	0xbc21d787	-0.009878046
169	0xbc8d9eb5	-0.017287591
170	0xbb10a34a	-0.0022069984
171	0xbcf59b43	-0.029981261
172	0x00000000	0.0
173	0xbc65e24c	-0.014031004
174	0x00000000	0.0
175	0xbded1eeb	-0.11578163
176	0x00000000	0.0
177	0x3cd4b5b8	0.025965557
178	0x00000000	0.0
179	0xbcdbb358	-0.026818916
180	0x00000000	0.0
181	0x3d43b602	0.047780998
182	0xbc5b2955	-0.013376554
183	0xbe1d7c74	-0.15379506
184	0xbd2d4891	-0.042305533
185	0xbc409211	-0.011753575
186	0xbc4674b5	-0.012112786
187	0xbce3c623	-0.02780444
188	0xbc826327	-0.01591642
189	0xbc85cb6f	-0.016332356
190	0xbc82da02	-0.015973095
191	0xbcf624f2	-0.030046914
192	0xbd02c004	-0.0319214
193	0xbc130f4d	-0.008975816
194	0xbc2fa9cc	-0.010721635
195	0xbc96c4bf	-0.018404363
196	0xbb1c9304	-0.002389134
197	0xbd081763	-0.03322543
198	0x00000000	0.0
199	0xbcaa3d0a	-0.020781059
200	0x00000000	0.0
201	0xbcfb77bd	-0.030696744
202	0x00000000	0.0
203	0x3d089d8e	0.03335338
204	0x00000000	0.0
205	0xbc9b4bb5	-0.018956998
206	0x00000000	0.0
207	0x3d3f5d29	0.046719704
208	0xbda7abbc	-0.081870526
209	0xbd99d289	-0.075108595
210	0x3d6e63e4	0.058200732
211	0x3c878598	0.016543195
212	0x3ca0f373	0.019647336
213	0x3d178cb6	0.036999427
214	0x3cb8ed16	0.022573989
215	0x3ca1998d	0.019726539
216	0x3cb82c8f	0.022482185
217	0x3d2a6f6c	0.041610166
218	0x3d3330a2	0.04374755
219	0x3c4ec5d8	0.012620412
220	0x3c774cb9	0.015093976
221	0x3cda6d91	0.026663573
222	0x3b5c60fd	0.0033627145
223	0x3d39fda5	0.04540791
224	0x00000000	0.0
225	0x3cc57aff	0.0241065
226	0x00000000	0.0
227	0xbd8a50b1	-0.06753672
228	0x00000000	0.0
229	0xbe0bddd2	-0.13658836
230	0x00000000	0.0
231	0xbdde44ef	-0.10852992
232	0x00000000	0.0
233	0xbd848ea8	-0.06472522
234	0xbd1618ab	-0.03664462
235	0x3df84213	0.12121978
236	0x3ce8cd57	0.028418226
237	0x3c0c4d7a	0.008563394
238	0x3c054b64	0.00813565
239	0x39389d40	0.00017606188
240	0x3c3edce5	0.011649345
241	0x3c274cf3	0.010211217
242	0x3c3eabd2	0.011637645
243	0x3cb80f07	0.022468103
244	0x3cb6acaf	0.022299139
245	0x3bd5ec88	0.006528441
246	0x3bfff801	0.007811547
247	0x3c606b73	0.013697493
248	0x3ae42738	0.0017406708
249	0x3cc1b68a	0.023646612
250	0x00000000	0.0
251	0x3c2398d3	0.009985167
252	0x00000000	0.0
253	0x3c90c2cb	0.01767101
254	0x00000000	0.0
255	0x3cf642df	0.030061183

momentum_buffer f4 [20]
0	0x3d8fa7e6	0.07014446
1	0x3dee2f3e	0.116301045
2	0xbdd2eca8	-0.10299045
3	0x3d746fd6	0.059676968
4	0x3b7514f0	0.0037396513
5	0xbd4f55e6	-0.05061903
6	0x3ded06fd	0.115735985
7	0x3e004b4d	0.12528725
8	0xbe34930d	-0.1763422
9	0xbdbaf1cd	-0.09128151
10	0x3db83c03	0.08995821
11	0xbe007e14	-0.12548095
12	0xbe556aa3	-0.2084146
13	0x3cccd298	0.025002763
14	0x3daa3df7	0.083126
15	0xbd47829c	-0.048708543
16	0x3e261701	0.16219713
17	0x3bb37bce	0.005477405
18	0x3cf91750	0.030406624
19	0xbc0a89c4	-0.008455697

momentum_buffer f4 [10, 20]
0	0x3d818b7a	0.06325431
1	0x3ef2460e	0.47319072
2	0xbccfa460	-0.025346935
3	0x3c76fae0	0.015074462
4	0x3c703cfe	0.014662979
5	0x3d525646	0.051351808
6	0xbe05a58e	-0.13051435
7	0xbea8f7bc	-0.33001506
8	0x3d46c0d8	0.048523754
9	0x3b805e20	0.0039174706
10	0xbd165caf	-0.036709484
11	0x3dab7fa1	0.08373953
12	0x3e58a053	0.21154909
13	0x3a730a00	0.00092712045
14	0x3d05af7a	0.03263805
15	0x3e4a6558	0.19765222
16	0xbd7b8208	-0.061403304
17	0x3ba92bd9	0.0051626978
18	0xbc9d1e58	-0.019179508
19	0xbe0b2f76	-0.13592324
20	0xbd2f161c	-0.042745695
21	0xbea46670	-0.32109404
22	0x3d1883e8	0.03723517
23	0xbc13bb4d	-0.009016824
24	0xbc1acfc0	-0.0094489455
25	0xbd08fe8f	-0.03344589
26	0x3dd0040e	0.10157023
27	0x3e72333f	0.23652361
28	0xbd0befa4	-0.034164086
29	0x3b851a18	0.0040619485
30	0x3ca6cd9f	0.02036172
31	0xbd859b3b	-0.065237485
32	0xbe132ca0	-0.14372492
33	0xbb3a4898	-0.0028424617
34	0xba7e7300	-0.00097064674
35	0xbe033489	-0.1281301
36	0x3d46912a	0.048478283
37	0xbb253e00	-0.0025213957
38	0x3cbf5c2c	0.02335938
39	0x3dbc38b9	0.091905065
40	0xbc5b1d03	-0.013373616
41	0xbe1ec7fe	-0.15505978
42	0x3c665e98	0.014060639
43	0xbbc0b588	-0.005881015
44	0xbb90164e	-0.00439719
45	0xbca8fac6	-0.02062739
46	0x3d2b818c	0.041871592
47	0x3ddf3527	0.1089881
48	0xbca8e25a	-0.020615745
49	0x3ba69130	0.0050832257
50	0x3c58003b	0.013183649
51	0xbc2d199c	-0.010565188
52	0xbd8cce76	-0.06875317
53	0xbb583a88	-0.0032993872
54	0x3b558adc	0.0032583987
55	0xbd7882ca	-0.060671605
56	0x3c67bdbe	0.014144359
57	0x3aa7a3c8	0.00127899
58	0x3b8d31e0	0.004308924
59	0x3d3d8075	0.046265084
60	0xbbfd06ed	-0.007721773
61	0xbd6089a1	-0.054818753
62	0xbae4d740	-0.0017459169
63	0xbbc84d8a	-0.006112759
64	0xba646c7d	-0.0008713676
65	0xbbe423f4	-0.0069622938
66	0xb67b2c0d	-3.7427556e-06
67	0x3a026c5d	0.0004975254
68	0xbcbb0a8a	-0.022832174
69	0xbc30d519	-0.010792994
70	0xbbb3f5ff	-0.0054919715
71	0xbc0252a0	-0.00795427
72	0xbc9e4e09	-0.01932432
73	0xbc0d550e	-0.008626236
74	0xba436c08	-0.00074547576
75	0xbcd48322	-0.025941435
76	0xbb5e8bcd	-0.003395784
77	0xba51077a	-0.00079738314
78	0xb64c1567	-3.0410827e-06
79	0x39926bdb	0.0002792765
80	0x3cdb58b2	0.026775692
81	0x3d9194da	0.07108469
82	0x3e507f08	0.20360959
83	0x3b253af8	0.002521215
84	0xbb4c8b87	-0.0031211094
85	0xbc02be0a	-0.007979879
86	0x3e34765b	0.17623274
87	0x3e99bb3a	0.30025655
88	0x3dcf4ee6	0.101224706
89	0x3dd26718	0.1027357
90	0x3d275300	0.04085064
91	0xba89a6b0	-0.0010501947
92	0x3b8d5f73	0.004314357
93	0x3d9eb4f1	0.077493556
94	0x3e0aa787	0.13540469
95	0x3cb64ece	0.022254374
96	0x3e13623f	0.14392947
97	0xbb987e6a	-0.0046537416
98	0x3e16c9d7	0.14725433
99	0x3e077d13	0.13231306
100	0xbc881180	-0.016609907
101	0xbc42b926	-0.011884963
102	0xbb437600	-0.0029824972
103	0xbc4fba98	-0.012678765
104	0x387c1450	6.01004e-05
105	0x393df267	0.00018114746
106	0x3c1565b0	0.0091184825
107	0xb6cdd703	-6.1345067e-06
108	0xbc7a5908	-0.015280016
109	0xbd0bf1b6	-0.03416606
110	0xbc315658	-0.010823809
111	0xbce40698	-0.027835175
112	0xbc572d22	-0.013133319
113	0xbd02e28a	-0.031954326
114	0x3af19230	0.0018430408
115	0x3a6915c2	0.0008891487
116	0xbb859c76	-0.0040774895
117	0xba865592	-0.0010248891
118	0xbc58db7a	-0.013235921
119	0xb91956c2	-0.00014623537
120	0x3aa2c00c	0.0012416854
121	0xbeb959e6	-0.362014
122	0xbc9eaad0	-0.01936856
123	0x3adeb027	0.0016989753
124	0xbc282bef	-0.010264381
125	0xbd086362	-0.033297904
126	0xbbbbbda9	-0.0057293964
127	0xb98f7a68	-0.00027366285
128	0xbdb75ad8	-0.08952874
129	0x37a89e00	2.0100735e-05
130	0xbbe45da2	-0.0069691697
131	0xbb70302a	-0.0036649802
132	0xbdefba3d	-0.11705444
133	0xbb14caad	-0.0022703812
134	0xbdacb52d	-0.08432994
135	0xbe1f49ba	-0.15555468
136	0xbd4ca49b	-0.049961668
137	0xbb1e5646	-0.002416031
138	0xbd488646	-0.048956178
139	0xb999dbe8	-0.00029346277
140	0xbd908f8d	-0.0705863
141	0xbe9a0d6b	-0.30088362
142	0xbe031de3	-0.1280437
143	0xbc769ae7	-0.01505158
144	0xba4edc3a	-0.00078910927
145	0xbce195fe	-0.027537342
146	0xbd2b9bfc	-0.041896805
147	0x3d22a2e0	0.03970611
148	0xbdaa52cf	-0.08316576
149	0xbd6005a0	-0.054692864
150	0xbc900862	-0.017582122
151	0xbdcb4cb4	-0.09926739
152	0xbdf8c4db	-0.12146922
153	0xbcb5e842	-0.022205476
154	0xbd8ea89a	-0.06965752
155	0xbdf4c908	-0.11952406
156	0xbcac2632	-0.021014307
157	0xbaba7c94	-0.0014227801
158	0xbcb5ff9e	-0.022216614
159	0x3cf8cf03	0.030372148
160	0xbc9b135f	-0.018930135
161	0xbc265062	-0.010151001
162	0xbd8e7e7f	-0.06957721
163	0xbb61540d	-0.0034382374
164	0xba83a1c0	-0.0010042712
165	0x3ade4639	0.0016958184
166	0xbdc230a0	-0.09481931
167	0xbe150692	-0.14553288
168	0xbd439250	-0.047746956
169	0xbd7f5472	-0.062336393
170	0xbd521c6c	-0.051296636
171	0xba39c800	-0.0007086992
172	0x3a591f3c	0.00082825474
173	0xbd4a57f8	-0.0494003
174	0xbbf61533	-0.0075098514
175	0xbc136180	-0.008995414
176	0xbd10ea4e	-0.0353797
177	0x3a978740	0.0011560693
178	0xbc785c56	-0.015158733
179	0xbdb455aa	-0.088054016
180	0x3c04e1da	0.008110488
181	0x3e905c67	0.28195497
182	0x3d22514a	0.039628305
183	0x3a18dd3d	0.0005831307
184	0x3bc74ad9	0.0060819206
185	0x3d03a1bc	0.032136664
186	0x3cac4984	0.021031149
187	0x3b0f08aa	0.0021825233
188	0x3d8a23f8	0.06745142
189	0x3b1bf4d4	0.0023797052
190	0x3b986295	0.004650424
191	0x3b90fb68	0.004424501
192	0x3dac406a	0.084107235
193	0x3b283b13	0.0025669977
194	0x3d80f10a	0.062959746
195	0x3dea44b8	0.11438888
196	0x3d170908	0.036873847
197	0xbb0eaf08	-0.0021771807
198	0x3d4506ea	0.048102297
199	0xba8c7376	-0.0010715562

momentum_buffer f4 [10]
0	0x3db58e2c	0.08865008
1	0xbd4e93d2	-0.05043394
2	0xbcc3e0d0	-0.02391091
3	0xbcadb378	-0.021203741
4	0x3deaf94d	0.114733316
5	0xbc675c0c	-0.014121067
6	0xbdd98087	-0.10620218
7	0xbe0527a2	-0.130034
8	0xbd3f1ecb	-0.046660226
9	0x3dae9376	0.0852422

momentum_buffer f4 [1, 10]
0	0x3d9929e4	0.07478693
1	0x3d52430a	0.051333465
2	0x3cc69c34	0.024244405
3	0x3c252ca7	0.010081447
4	0xbda2ae60	-0.07943416
5	0x3bd57b61	0.006514952
6	0x3e0d1bd2	0.13780144
7	0x3d480cc8	0.048840314
8	0xbda7bf39	-0.0819077
9	0x3d69d2e1	0.057085875
