model.pth (torch, 10213 bytes, 10 tensors)

hidden1.weight f4 [20, 26]
000000 8d e5 17 3f 45 54 4f 3d aa 01 ba 3d a1 fc 5a be
       0.5933464 0.050617475 0.09082349 -0.21385433
000010 28 f7 04 3f fd 1f f4 3e 0c ef f6 be cd 0f c4 3e
       0.5193963 0.47680655 -0.48229253 0.38293305
000020 f3 95 b6 bd f6 d7 eb be 2f cd f1 3e 66 b8 83 be
       -0.08915319 -0.46063203 0.47226855 -0.25726622
000030 29 87 ec be 69 68 e1 3e ca 52 6f 3c 94 65 cb 3e
       -0.4619687 0.4402497 0.014607141 0.39725935
000040 1a f2 b9 be 19 0c 05 bf 8c 06 34 3e 83 8b 02 3f
       -0.3631752 -0.51971585 0.17580622 0.5099413
000050 d8 45 ed 3e 10 5b 10 bf 00 84 de bb ad 75 88 3d
       0.4634235 -0.5638895 -0.006790638 0.0666307
000060 92 92 61 be 81 8d 26 be 66 fc 34 be f8 91 81 3e
       -0.22028568 -0.16264917 -0.17674407 0.25306678
000070 ae 69 2b 3c ea 0c fe 3e 17 db 02 be 71 61 7a 3e
       0.010462208 0.49619228 -0.12778889 0.24451233
000080 d9 4a aa be 62 73 7c be e0 b1 5f be 4a bd d9 3d
       -0.3326023 -0.2465339 -0.21845198 0.10631807
000090 1b 51 19 3e 81 88 1e be 04 32 92 3e fa 04 e8 3e
       0.14972346 -0.1548176 0.28553784 0.45316297
0000a0 d1 8b ec be bf 6c e7 be bc 9f 57 be 38 84 24 be
       -0.4620042 -0.45200154 -0.21057028 -0.16066062
0000b0 e4 da 85 3e 0c 30 2f 3d 30 b3 ab 3e f0 2a bc 3e
       0.26143563 0.04277043 0.33535147 0.3675151
0000c0 ce f8 d4 3e f3 db bb be 54 4a 5a 3e 5a e9 1f 3f
       0.41596073 -0.36691245 0.21317416 0.6246544
0000d0 c8 6f a9 3e 3b 20 f3 be a4 13 71 be 11 fa 41 3e
       0.33093095 -0.47485527 -0.23542649 0.18943049
0000e0 74 65 47 be 0c 77 76 be 7b b9 d8 3e 46 68 fc bd
       -0.19472295 -0.2406885 0.4232901 -0.12324576
0000f0 2d f7 b3 be 46 fc 61 3c c6 1f aa be 06 de 6f be
       -0.35149518 0.013793057 -0.33227366 -0.23424539
000100 fe a3 bd 3e 2d 43 d6 3e 9d 7e 98 be 25 cb b6 be
       0.3703918 0.41848126 -0.29784098 -0.35701862
000110 2a 83 a3 be 50 2b 83 3d 20 63 40 3d 56 29 05 3f
       -0.31936008 0.064047456 0.046969533 0.520162
000120 b1 0c de be 6a b3 f1 3d f0 02 6c 3e e7 6e f4 be
       -0.43369058 0.11801799 0.23047996 -0.47740862
000130 3e 5d c2 be 2c 9f 26 3f 4e 67 cd be 52 b8 1b 3f
       -0.37961763 0.65086627 -0.40117878 0.60828125
000140 e6 70 16 be 69 db 9a be aa 4b b1 be 37 7c 8b 3e
       -0.14691505 -0.30245522 -0.3462804 0.27243206
000150 16 75 35 3e af ba 5b be 9f 82 02 3e ad 94 2e 3e
       0.17720446 -0.21457933 0.1274514 0.17048903
000160 1b 9d 89 3e 1f 17 33 be c0 ec 9f 3d 35 ab 7b be
       0.26877674 -0.17489289 0.07808828 -0.24577029
000170 35 8a 18 be 66 a4 92 bd 6e 37 f5 3e 21 4b dc 3e
       -0.14896472 -0.07160263 0.47893852 0.4302607
000180 7a f3 23 be 8c 68 98 bb a2 1f a3 be f4 bd c8 3e
       -0.16010848 -0.004651135 -0.3186007 0.39207423
000190 40 dc a2 3c e5 a2 8d be 0b 2d d1 be 79 10 03 be
       0.019880414 -0.2766334 -0.40854678 -0.12799253
0001a0 8c ec 18 bf 7e 0c 9f be 6a 77 a0 bb 63 83 d3 bd
       -0.5973594 -0.31064218 -0.0048970478 -0.103277944
0001b0 90 06 e1 3d 16 3c c3 be 10 d2 97 bd bb 60 b4 3e
       0.1098758 -0.3813178 -0.07413113 0.3523005
0001c0 18 d3 a0 3e b5 52 e7 3e 1d 03 20 be 01 74 72 3e
       0.31411052 0.45180288 -0.15626188 0.23677064
0001d0 28 fa 03 3f 62 21 c4 be 8b 3b 05 3d 7b 4a f4 bd
       0.51553583 -0.3830672 0.032527488 -0.119282685
0001e0 e2 91 98 3e 84 5e 6a 3e 4c bb d5 be 20 59 04 bf
       0.297988 0.22887617 -0.4174446 -0.51698494
0001f0 80 92 68 bd dc 84 e8 3c 64 55 f4 bd 3c d5 fc 3e
       -0.05678034 0.028383665 -0.119303495 0.49381435
000200 80 34 82 3d d1 24 21 be 1f e9 8d 3e 7b 16 1c bf
       0.0635767 -0.157367 0.2771692 -0.609718
000210 6b 46 12 3e 9e e7 ee 3e 5c d9 a4 3d 43 7e e5 be
       0.14284675 0.46661085 0.080492705 -0.44822893
000220 d6 3f fa 3e 1d bf c6 be be 1c 78 be bf 0e 4f be
       0.48876828 -0.38817683 -0.24229714 -0.20220469
000230 51 47 37 bd da 91 2b 3e 2c c0 da be 51 e7 07 3e
       -0.044745747 0.16754857 -0.4272474 0.13271834
000240 cf b3 e3 3e a6 20 ca be 34 cd 52 be 39 03 4f 3e
       0.4447312 -0.39478034 -0.20586091 0.20216073
000250 c3 a0 8d be c5 be a3 3e 10 48 52 bd 8b 18 da 3e
       -0.27661714 0.31981483 -0.051338255 0.4259685
000260 a2 77 d2 3e 74 75 88 be be 4b 66 be 04 7c 37 3e
       0.41106898 -0.2665211 -0.22489831 0.17918402
000270 65 5b 87 3e e5 90 d6 3e e0 bb 2e be 12 c1 18 3e
       0.26436916 0.4190742 -0.17063856 0.149174
000280 1a 8c 12 be 5f b0 1c bd e1 1c ae 3e af 69 67 3e
       -0.14311257 -0.038254138 0.34006408 0.22598909
000290 f7 24 83 bd 01 5c a1 3e 3b 60 02 bf 6c 32 c3 3d
       -0.06403535 0.31515506 -0.50928086 0.095311016
0002a0 2f b5 8d 3e 10 b6 1e be 8e 02 b3 bc 2f bc a5 be
       0.27677295 -0.15499139 -0.021851804 -0.32370135
0002b0 6d 08 e9 be fe 48 a0 3d 7a d8 64 be 12 06 48 3e
       -0.4551424 0.07826422 -0.22348204 0.19533566
0002c0 4e de b9 be ea e7 df be 77 6d d9 be cd 13 ef be
       -0.36302418 -0.43731624 -0.42466328 -0.46694794
0002d0 a0 93 16 be c4 55 d4 be 1d 76 9b be 71 9e b2 be
       -0.14704752 -0.41471684 -0.3036355 -0.34886506
0002e0 9f 62 a1 3e e2 72 79 be 8c f7 81 bd 1b 19 c2 3d
       0.31520554 -0.2436023 -0.06346044 0.09477445
0002f0 97 b8 3f 3e 6e d6 3f 3e 2b 92 d2 3d 70 96 35 3f
       0.18722759 0.18734142 0.102817856 0.70932674
000300 6d 46 3c be 30 5b 9f 3e 90 19 66 bd 16 23 23 3d
       -0.1838624 0.31124258 -0.056176722 0.039828382
000310 92 62 f2 be 58 23 ba bd 82 01 b2 3e 96 54 18 bf
       -0.47340828 -0.090887725 0.34766775 -0.5950407
000320 a3 52 ed be a9 78 ea be 4c 5f 90 be 36 b3 05 bf
       -0.4635211 -0.4579518 -0.28197706 -0.5222658
000330 40 10 7a 3c c3 0b 0a bf ce 4c 90 be 9a ad 05 bf
       0.015262663 -0.53924197 -0.28183597 -0.5221802
000340 2d 26 c6 be cc 3a 00 bf 72 14 fd be 2a 27 9e be
       -0.38701 -0.50089717 -0.4942966 -0.30889255
000350 dd dd e9 be 6e d9 e2 be c4 8c 0e 3d ae d8 6d 3e
       -0.4567708 -0.4430651 0.034802213 0.23227188
000360 c7 0d 46 bd a0 cb 5a be c3 39 8c bc 0f d0 bb 3e
       -0.048352983 -0.2136674 -0.017117387 0.36682174
000370 dc df ee 3e db 57 96 3e ec d8 2c 3e e8 2f ed 3e
       0.46655166 0.29363903 0.16879624 0.46325612
000380 d0 62 ed 3d 0a 44 98 3e 9c cc 9a 3e fd cf d6 3e
       0.115911126 0.2973941 0.3023423 0.41955557
000390 d6 59 b1 be 61 07 c6 3d d8 69 ea 3e 8a 4d 82 3e
       -0.34638852 0.09669376 0.45783877 0.25449783
0003a0 c4 9e e7 3e 56 34 09 3f 06 4f 25 bf 0a 3d de 3e
       0.45238316 0.53595483 -0.64573705 0.43405944
0003b0 3e 90 f5 3e 24 95 ac be 1e 6e 3d 3e 14 98 14 bd
       0.4796161 -0.33707535 0.18499038 -0.036277846
0003c0 bf c9 e9 3e f4 b5 76 be 31 d1 b9 3e 27 5e d0 bc
       0.45661733 -0.24092847 0.36292413 -0.02543552
0003d0 87 c7 84 be db ca 53 3e a4 d8 34 3e 45 15 25 be
       -0.25933477 0.20682852 0.17660767 -0.16121395
0003e0 ff 24 09 3e 5a a4 ad be 98 a9 a0 3e c2 ca 9b be
       0.13393019 -0.33914453 0.3137939 -0.3042813
0003f0 a0 a7 be be b5 ca 89 bd 13 b7 77 be 79 e9 d7 3e
       -0.37237263 -0.067281164 -0.24190931 0.42170313

hidden1.bias f4 [20]
000000 54 8b 3f bd a2 87 69 3e 3a 62 97 bd 95 27 34 3e
       -0.046763733 0.22805646 -0.07391782 0.17593224
000010 33 51 0e bc 43 e7 fc 3d af 0c 28 3e d6 ff a5 bd
       -0.008686352 0.12348797 0.16411088 -0.081054375
000020 7c 3c 43 be 51 e7 70 bd 71 7e 07 be 65 9b 06 3e
       -0.19066042 -0.05881435 -0.13231827 0.13145216
000030 ac b2 bc bd 3a 75 52 be 73 c6 cd bd 0e 02 07 be
       -0.092137665 -0.20552531 -0.10047617 -0.13184378
000040 24 a3 0c bd 84 1a 1c 3e fd 1b ef bd be ed c4 bd
       -0.03433527 0.1524449 -0.1167526 -0.09615658

hidden2.weight f4 [10, 20]
000000 91 ce dc bc b4 f3 61 3c 92 cf bc 3d bc 8e 82 3d
       -0.026953967 0.0137910135 0.092192784 0.06374881
000010 53 3f 19 bc 8a f1 af 3e 07 07 cb be 40 b7 0e 3e
       -0.009353477 0.34363967 -0.396538 0.13937092
000020 71 31 8f bd 4f 51 f9 3e b9 f9 74 3e 97 e7 2f 3f
       -0.06991852 0.48694846 0.23923387 0.68712753
000030 39 2e 18 bf 6f 0d 0f 3e d7 d1 77 3e 1e c9 05 3f
       -0.5944553 0.13969968 0.24201141 0.52260005
000040 99 fb a7 bd b1 a7 e5 3e a4 79 de 3e 84 64 cb 3e
       -0.08202285 0.448545 0.4345218 0.39725125
000050 4a 4c 76 3e 04 b6 18 bf e9 87 d6 bc 7a c4 e2 3d
       0.2405254 -0.59652734 -0.026187854 0.11072631
000060 a7 3f 9c 3e 7c 7e 05 bf 57 2f f3 3e 33 5e d6 be
       0.30517313 -0.52146125 0.47497055 -0.41868743
000070 d2 5e 84 be 2b c3 b8 3e 07 46 b4 be f3 bb ca 3d
       -0.25853592 0.360864 -0.35209677 0.0989913
000080 0e 73 d9 be 33 0d bb 3e 2e 2c c5 3d 4d cf bf bd
       -0.42470592 0.36533508 0.09627567 -0.09365711
000090 d6 d2 00 be 93 ec 06 bf a7 fd 0f 3e 84 dd ea be
       -0.12580428 -0.52704734 0.14061604 -0.45872128
0000a0 bb ac e7 be 5f bc 9e 3d 9e 3e 27 bf a0 a3 1b bf
       -0.4524897 0.07750773 -0.6532992 -0.60796547
0000b0 f5 e7 9f 3e ac 2f e0 be c0 c4 85 3d 6c 14 6c 3f
       0.31231657 -0.4378637 0.06531668 0.9221866
0000c0 36 7f e0 be 85 00 3c 3f 35 a9 59 be 54 b0 1e 3f
       -0.43847054 0.7343829 -0.21255954 0.61987805
0000d0 32 64 e5 bd 8f d6 8d 3e 65 8a 35 bf e5 63 56 be
       -0.11200751 0.27702758 -0.709143 -0.20936544
0000e0 8c 90 d0 3d 33 f2 9e 3f 6f 50 4b 3f 66 cf 7d bf
       0.1018382 1.2417663 0.79419607 -0.9914459
0000f0 d6 a3 5d bf f1 1a 56 3e 97 55 d4 be 10 f5 11 3e
       -0.8657812 0.20908715 -0.4147155 0.1425364
000100 51 77 62 bf 3c f3 27 3f 53 54 d5 3c d5 7d fd 3d
       -0.8846331 0.6560552 0.026041185 0.12377516
000110 ad 2e a4 3e 52 e1 06 3f 9a 5a f7 bd 7b a4 85 3e
       0.3206686 0.5268756 -0.12077828 0.2610205
000120 4b 8a 17 3f 71 55 28 3f b2 62 20 bc 75 b3 34 3d
       0.59195393 0.65755373 -0.009789156 0.044116456
000130 32 db e4 be a5 71 7d bc 21 68 9b bd b4 69 bf 3d
       -0.44698483 -0.0154689895 -0.075882204 0.09346333
000140 70 07 a6 3e ed 79 00 3f 89 58 85 be d4 70 90 3e
       0.3242755 0.50186044 -0.2604411 0.2821108
000150 1f 57 e1 be 5c d3 e7 bc 50 92 a9 3e da 58 61 be
       -0.4401178 -0.028299026 0.3311944 -0.2200655
000160 29 75 6c 3e cd c3 82 be 29 10 bc 3e 5d 51 83 be
       0.23091568 -0.2554001 0.3673108 -0.25648013
000170 a1 2f c9 3e 9c 85 31 be 86 e0 24 3e f7 c9 d2 be
       0.3929415 -0.17336124 0.16101274 -0.41169712
000180 54 13 c0 be 79 f6 8b bc 83 ba 89 be 9a d8 39 bd
       -0.37514746 -0.0170853 -0.2690011 -0.045372583
000190 b9 e0 1a bd 19 17 0c bf 7f a1 07 3f a8 fb a4 3e
       -0.03781197 -0.54722744 0.529808 0.32223248
0001a0 3d f4 e8 bd 61 de 47 3e 92 af 0f 3e 27 86 35 3f
       -0.1137471 0.19518425 0.14031819 0.70907825
0001b0 93 88 af bd e7 bd cc be 9f 9a ef be 05 46 bc be
       -0.08570971 -0.39988634 -0.46797654 -0.3677217
0001c0 1d 15 ce 3e a6 70 58 3f 55 94 11 bf 87 9f f2 3e
       0.40250483 0.8454689 -0.5686696 0.47387335
0001d0 78 6c c8 3e 9f de a6 be f9 67 ef be dd 27 0f bf
       0.39145255 -0.3259172 -0.46759012 -0.559202
0001e0 81 20 7a bb 3e 49 a7 bd 7e 33 8c be ca 10 d8 be
       -0.0038166346 -0.08168267 -0.27383035 -0.4220031
0001f0 65 29 f1 3d c4 d6 df 3e 7c 7f 03 bf 0b d2 b2 be
       0.117754735 0.4371854 -0.513664 -0.34925875
000200 64 87 92 be ce 68 db be 0f e9 28 3e 82 4b 99 3d
       -0.2861892 -0.42853397 0.16495155 0.07485105
000210 29 a9 91 be 3e 6e a8 3e 2e f4 0f bf cb 05 11 3f
       -0.2844937 0.32896608 -0.56231964 0.56649464
000220 81 91 80 bd aa 76 53 3e c8 cd da be 25 e1 3f 3e
       -0.06277753 0.20650735 -0.42735124 0.1873823
000230 1b 5f 24 3f 86 7c c2 3e 14 a0 52 3e 3b e2 8c bd
       0.6420762 0.3798563 0.20568877 -0.068790875
000240 0f 4d c5 be 07 29 f7 be 63 74 dc 3e 2b b8 22 be
       -0.38535354 -0.4827349 0.43057546 -0.15890567
000250 76 ef 10 bf 1b 2f 58 be 7b ec a5 3c b9 42 2a bf
       -0.5661539 -0.2111172 0.020254364 -0.6650806
000260 3c a1 62 3e ab 80 0a bd 11 26 f0 3e 37 40 af bc
       0.22131819 -0.033814114 0.46904042 -0.021392925
000270 58 7d e9 3e 84 75 95 bd 1e 5d 67 bf 9f a9 99 3e
       0.45603442 -0.07297805 -0.9037646 0.30012223
000280 d9 ad 55 be 47 f5 f7 3d 5b c3 16 3e db 31 11 bf
       -0.20867099 0.1210733 0.1472296 -0.567167
000290 ad 96 22 bf 9f 25 f6 3e e8 2c 0c bf 7a 9e 1d 3d
       -0.63511163 0.48075578 -0.5475602 0.038481213
0002a0 31 03 a2 bd 6e e4 ab 3e 03 4c 89 be 6b 6d f6 be
       -0.07910765 0.33572716 -0.26815805 -0.48130354
0002b0 3c b9 00 3f 61 3a 92 3e 5a ab d5 3e 6e 52 c9 3d
       0.50282645 0.28560165 0.41732293 0.09830175
0002c0 4c c1 0a bf 1f 66 d4 be ed 1b 5c 3e 1f d5 d0 be
       -0.542012 -0.41484162 0.21495028 -0.40787598
0002d0 f1 ba 90 3e 62 fb 26 bf ea 28 f9 be 98 10 ab 3e
       0.28267625 -0.6522733 -0.48664027 0.33411098
0002e0 76 0c 21 3e 4c 3a e6 be 75 a7 c1 3d 93 db 9a 3e
       0.1572741 -0.44966352 0.09455768 0.30245647
0002f0 e7 68 5b bf f4 16 eb bd 9d c9 04 bf d1 49 7a bf
       -0.85706943 -0.11478987 -0.5187014 -0.97768885
000300 d7 17 0d 3f 04 a9 1b 3f 7f de d3 3e 87 07 00 3d
       0.551145 0.6080477 0.4138069 0.03125718
000310 7e fb 07 bf ef 86 39 3f 22 d6 e2 3e b6 16 0e 3e
       -0.5311812 0.7247152 0.44303995 0.13875851

hidden2.bias f4 [10]
000000 7c 9c 28 3e 05 26 8c be 93 24 ae bd 71 5a b0 3e
       0.16465944 -0.27372757 -0.0850307 0.34444
000010 c9 38 ed 3d be d3 92 be ff 4d 4d 3e 99 3c 85 be
       0.115830965 -0.2867717 0.20049284 -0.26022795
000020 28 b2 9e be 22 50 10 be
       -0.30995297 -0.14093068

hidden3.weight f4 [1, 10]
000000 5f b6 32 3f fd 33 0f 3f e9 1d 0d c0 95 7a b2 bf
       0.69809526 0.559387 -2.2049506 -1.3943659
000010 20 a5 a8 be 89 04 c2 3f 65 70 37 bf 97 af c3 bf
       -0.3293848 1.5157634 -0.71655875 -1.5287961
000020 2c 0a 4a bf a9 17 ca 3f
       -0.7892177 1.578847

momentum_buffer f4 [20, 26]
000000 90 00 b8 bc 9a e0 d3 3d 4c f3 18 3e 68 6a 20 bc
       -0.022461206 0.10345574 0.1493656 -0.009790994
000010 b6 e4 7b bc 88 27 c2 bd 31 79 57 bc 1c 43 40 3d
       -0.015374353 -0.09480196 -0.013151453 0.046939
000020 37 01 5a bc 90 a6 cb bc d8 51 bd 3d 45 97 f4 bb
       -0.013305954 -0.024859697 0.09244126 -0.007464322
000030 de 54 12 bc 96 ac 86 bc 12 6e 02 bb 41 0b f4 3d
       -0.008931367 -0.016439717 -0.0019902033 0.11916209
000040 00 00 00 00 f2 85 14 bd 00 00 00 00 fe a7 ac 3b
       0.0 -0.036260553 0.0 0.0052690497
000050 00 00 00 00 0d 72 0b 3d 00 00 00 00 a2 fd 24 bc
       0.0 0.034044314 0.0 -0.010070236
000060 00 00 00 00 e6 70 af 3c fb e0 5e 3d e9 9e f0 bd
       0.0 0.021416139 0.054413777 -0.1174906
000070 42 e6 8d bd 82 aa 39 3c a8 4b 5a 3c 1e 03 9a 3c
       -0.06928684 0.011332156 0.013323702 0.018800315
000080 84 3e 80 3c 82 9e 5d 3c 8c eb 76 3c 70 b2 c4 bc
       0.01565481 0.013526561 0.015070807 -0.024010867
000090 48 01 f9 3a a5 b0 0d 3c e2 34 9b 3b 50 5a 52 ba
       0.0018997574 0.008648072 0.0047365287 -0.0008024322
0000a0 55 1d 17 3b 40 77 0b 3d 00 00 00 00 ec 88 cf 3c
       0.0023058255 0.034049273 0.0 0.025333844
0000b0 00 00 00 00 ba 53 78 3e 00 00 00 00 64 cd c6 3d
       0.0 0.24250689 0.0 0.09707144
0000c0 00 00 00 00 42 33 19 3e 00 00 00 00 aa bc ef 3c
       0.0 0.1496096 0.0 0.029264767
0000d0 2a 15 96 bd 0e 86 03 3e b5 e6 aa 3d cc 1e 12 3c
       -0.073282555 0.12844107 0.08344785 0.008918475
0000e0 19 54 29 3c 98 72 c6 3c 14 f0 e9 bc 39 15 2e 3c
       0.010334992 0.024224564 -0.028556861 0.010625177
0000f0 70 6c 4b 3c 4a 6e 9d 3c f7 29 cb 3c a7 98 de 3b
       0.01241599 0.019217629 0.024800284 0.0067931
000100 7e 43 b5 bb a6 44 b1 3c 03 67 ed 3a 92 8f e4 3c
       -0.0055317273 0.02163918 0.0018112365 0.02790049
000110 00 00 00 00 00 3c b5 3a 00 00 00 00 eb b9 56 bd
       0.0 0.0013827085 0.0 -0.0524234
000120 00 00 00 00 b8 fc f7 bb 00 00 00 00 50 b3 3a bd
       0.0 -0.007567968 0.0 -0.045581162
000130 00 00 00 00 04 c1 d5 3b e4 aa 01 3d 4c 78 07 3e
       0.0 0.0065232534 0.031657115 0.13229483
000140 28 95 57 bc 90 86 ca bc 0f e0 ed bc 49 1d 11 bd
       -0.01315812 -0.024722368 -0.029037504 -0.03542832
000150 d1 93 70 bd f9 0b ae bc 59 86 28 bd b0 12 f2 bc
       -0.05873472 -0.021245943 -0.04114375 -0.029549927
000160 28 b9 b7 bd 10 66 9a bc 40 10 21 bd 14 46 fd bc
       -0.089708626 -0.018847495 -0.039322138 -0.030917205
000170 25 ab a4 bb 51 dc 09 bd 00 00 00 00 10 7a 12 bb
       -0.005025285 -0.033657376 0.0 -0.0022350587
000180 00 00 00 00 b0 25 71 be 00 00 00 00 64 55 36 be
       0.0 -0.23549533 0.0 -0.17806011
000190 00 00 00 00 a0 03 43 be 00 00 00 00 02 5c b4 bd
       0.0 -0.19044352 0.0 -0.088066116
0001a0 18 d6 10 be 26 60 36 3d 00 c1 f1 bb 55 f7 5c bc
       -0.1414417 0.044525288 -0.0073777437 -0.013486703
0001b0 6e 53 94 bc aa 5e f6 bc b8 98 7c bc aa 80 60 bd
       -0.018106189 -0.030074436 -0.01541727 -0.054810204
0001c0 8e d4 ba bc bc 36 1b bd 8c 84 5b 3d 50 b6 72 bc
       -0.022806432 -0.037893996 0.053593203 -0.0148139745
0001d0 cf bb bf ba 8a da af bc 7b a9 33 bb 1a 9f 43 3d
       -0.0014628115 -0.021466512 -0.002741425 0.047759153
0001e0 00 00 00 00 55 85 16 bc 00 00 00 00 36 d0 bc bd
       0.0 -0.009187062 0.0 -0.092194006
0001f0 00 00 00 00 f4 bf 4f bd 00 00 00 00 44 bb 55 bd
       0.0 -0.05072017 0.0 -0.052180544
000200 00 00 00 00 8d 8e 45 bd c8 f3 fa 3b 80 c3 65 ba
       0.0 -0.04823165 0.0076584555 -0.00087647885
000210 c8 14 e0 bc 38 c6 de 3a 7f c1 50 bc 82 ae 79 3b
       -0.02735366 0.001699633 -0.012741446 0.00380984
000220 57 b1 1c 3d a2 1e 05 3b 38 5f 11 3b d8 13 f8 3b
       0.038255062 0.0020312448 0.0022182 0.007570725
000230 bb b0 9c bc f7 d5 16 3c 18 ac cb 3a 00 0d 14 3c
       -0.01912724 0.009206287 0.0015538959 0.009036303
000240 26 8a b5 39 04 95 f7 3b 00 00 00 00 4f f2 a5 3b
       0.0003462594 0.007555606 0.0 0.005064286
000250 00 00 00 00 d6 2f 67 bc 00 00 00 00 4c 79 79 bc
       0.0 -0.014110526 0.0 -0.015226673
000260 00 00 00 00 1b 5f 13 bc 00 00 00 00 a0 93 c5 ba
       0.0 -0.008994843 0.0 -0.0015073903
000270 64 4c fe bb 39 8d a7 bc 01 c4 61 bb ce 84 49 3b
       -0.0077605713 -0.020453082 -0.0034449103 0.0030749324
000280 79 be 6b 3c 6c 79 c8 bb 47 67 86 bc 6b 48 bd 3b
       0.014388674 -0.0061179902 -0.016406668 0.005776455
000290 b6 8a 01 3c 8a 4c bf 3b 59 28 38 3d 5a c4 d3 b9
       0.007906606 0.0058379816 0.044960354 -0.0004039135
0002a0 83 77 b5 3b 57 70 22 3a be e4 23 3a 02 41 f4 3b
       0.0055379285 0.00061965495 0.0006252042 0.0074540386
0002b0 00 00 00 00 11 2c 77 3b 00 00 00 00 af e1 87 3d
       0.0 0.0037715475 0.0 0.066348426
0002c0 00 00 00 00 a2 87 32 3d 00 00 00 00 58 09 b9 3c
       0.0 0.04358638 0.0 0.022587463
0002d0 00 00 00 00 03 89 14 3d 33 3d 3e 3c 96 b0 47 bd
       0.0 0.036263477 0.011611271 -0.04875239
0002e0 be 59 c6 bb fe 89 3d 3c 32 9f 5e 3c ec 9b 90 3d
       -0.0060531786 0.011568544 0.01358776 0.0706099
0002f0 35 1c 67 bc 21 2c a3 bd 13 dd b3 3c 49 91 7b 3c
       -0.014105846 -0.07967401 0.021956002 0.015354463
000300 f3 d8 af bc 3c 2d 7f bb 41 07 93 3b 36 97 0d 3c
       -0.021465754 -0.0038936874 0.0044869487 0.0086420085
000310 04 1c 1a 3b 90 d5 48 3c 00 00 00 00 04 87 3e 3c
       0.0023515234 0.0122579485 0.0 0.01162887
000320 00 00 00 00 64 79 d1 3d 00 00 00 00 0a 15 a1 3d
       0.0 0.102282315 0.0 0.07865341
000330 00 00 00 00 fc 48 f8 3c 00 00 00 00 32 74 a1 3d
       0.0 0.03030824 0.0 0.078834906
000340 f6 44 9a bb 78 8d bb 3c 5d 73 0d 3c 9a f3 29 3b
       -0.004707928 0.022894606 0.008633462 0.0025932551
000350 96 9d 47 3b 22 0d be 3b a8 13 e6 3c 76 bf fb 3c
       0.0030458919 0.0057999054 0.028085545 0.030730944
000360 7b 07 19 3b 7d 6d 49 3b f8 f8 55 bc fc 6f 03 3c
       0.0023350406 0.0030735426 -0.013059847 0.008022305
000370 fa b3 39 bc 16 eb 8b 3c f2 2e 0a 3a be f6 d5 3c
       -0.011334414 0.017079871 0.00052712776 0.026118632
000380 00 00 00 00 12 ad 44 bb 00 00 00 00 22 33 11 bd
       0.0 -0.0030010385 0.0 -0.035449155
000390 00 00 00 00 6e 1f 20 bd 00 00 00 00 f3 73 07 bd
       0.0 -0.039092474 0.0 -0.033069562
0003a0 00 00 00 00 e2 18 90 bc ba c2 10 3d b9 f7 82 bd
       0.0 -0.01758999 0.035341956 -0.063949056
0003b0 ea 39 05 be 7a 1f 41 3c d0 97 05 3d c6 d9 45 3d
       -0.13010374 0.01178729 0.032615483 0.048303388
0003c0 e2 a3 42 3d ed 48 66 3c 85 0a df 3c cb 26 b4 3c
       0.047519572 0.014055473 0.027226696 0.021991154
0003d0 fb ee d8 3c f8 d9 0e 3a 47 c3 1a 3d b0 62 70 3c
       0.026481142 0.000544935 0.037783887 0.014671966
0003e0 02 06 1d 3b 38 44 7f 3c 00 00 00 00 74 9c 0f 3c
       0.002395988 0.015580229 0.0 0.008765329
0003f0 00 00 00 00 40 86 98 3d 00 00 00 00 5b 92 fb 3c
       0.0 0.07447481 0.0 0.030709436

momentum_buffer f4 [20]
000000 6e be d5 3d 1c a4 f7 bd f2 85 c2 bd 29 ed 86 3e
       0.10436712 -0.12091848 -0.09498204 0.26352814
000010 3a 36 13 3e 14 c0 94 bc 98 4a 06 bd 88 8c fc bd
       0.14376155 -0.018157996 -0.032785982 -0.12331492
000020 2b 73 e2 bc 84 a9 00 be c3 c1 16 3d c5 e9 97 bd
       -0.027642807 -0.12564665 0.03680588 -0.07417635
000030 34 23 66 3c 1c be 80 bc ac 60 18 3e ec 97 07 3e
       0.014046479 -0.015715651 0.14880627 0.13241547
000040 df c6 0b 3d ce 70 c4 bd 90 fd f1 ba 54 6e 0b 3e
       0.034125205 -0.09591828 -0.0018462408 0.13616306

momentum_buffer f4 [10, 20]
000000 e8 2a 83 3b 6e 2e 13 3d 3c 75 46 bd 52 57 1b 3d
       0.0040029176 0.03593295 -0.048451647 0.037925072
000010 36 03 64 3c e8 97 2c bd 9b 8e f2 bb 0b 12 ca bc
       0.013916781 -0.042137057 -0.007402254 -0.024666807
000020 e4 1f 86 3d 5d 3f d3 3d 4b c1 46 3d e5 60 bf 3d
       0.065490514 0.1031482 0.048524182 0.09344653
000030 99 0f 05 bd 56 f9 03 bd 28 bc 01 bc 1c 7e 65 3d
       -0.03248558 -0.032220207 -0.007918395 0.05602847
000040 63 e2 66 3d d4 95 26 bd 7e 4a 0a bc d0 83 97 3d
       0.056368243 -0.04067023 -0.008440612 0.07398188
000050 f4 d3 81 ba 12 f6 ca 3b f6 fe 40 bb 1b b3 fd bb
       -0.0009905086 0.0061938846 -0.0029448844 -0.0077422983
000060 3c 7b cf 3b 8a 47 d3 bb 54 de 97 3b c1 e9 9f bb
       0.0063318294 -0.006447737 0.004634658 -0.0048801606
000070 11 7a a9 3b a0 24 a7 bb e8 24 01 3c 64 ec 14 bb
       0.005172022 -0.0051008016 0.007882334 -0.0022723908
000080 14 92 b2 3b e6 27 fa bb e6 39 4c bb a5 11 e1 3b
       0.005449543 -0.007634151 -0.003116244 0.0068685585
000090 0a 9e 4b bb 37 00 b0 3b 46 11 cb 3a 8b 2e dc 3b
       -0.003106954 0.0053711194 0.0015492819 0.0067194155
0000a0 34 62 00 be de 31 60 bd 8a 23 bc 3d 3a 07 11 be
       -0.12537462 -0.054735057 0.09186466 -0.14162913
0000b0 12 bf 20 be 76 1f 95 3d e9 05 a9 be b6 f0 cd be
       -0.15697888 0.07281391 -0.33012322 -0.4022271
0000c0 6c 6a b9 bd 8e a0 da bd 28 45 e3 bd fa 11 86 be
       -0.090535015 -0.106751546 -0.11097175 -0.2618559
0000d0 e5 32 51 be b4 e4 94 3c 78 85 f8 bd ec a8 88 be
       -0.20429571 0.01817546 -0.12134832 -0.26691377
0000e0 4c 55 0c be 30 4b f4 bc b4 4c 48 bd 76 27 9d bd
       -0.13704413 -0.029821008 -0.048901275 -0.07673542
0000f0 8a 6d 36 bd 3f d0 80 bd ca 88 c2 3d d2 d3 0a be
       -0.04453806 -0.0628972 0.09498747 -0.13557366
000100 31 1e b2 bd 36 c7 0f 3d 2c 5f ef bd 1d 49 41 be
       -0.08697165 0.03510209 -0.116880745 -0.18875547
000110 3a f1 ff bd 24 21 58 be 06 b3 05 be c8 59 34 be
       -0.12497182 -0.21106392 -0.13056573 -0.17612374
000120 e8 a6 d3 bd 7c 83 44 3c 8c 9b 32 bd 1a c4 0a be
       -0.10334569 0.011994239 -0.043605372 -0.1355137
000130 f6 9c d5 bd 9c 14 4d 3d ea 20 f5 3c 1e 7c 24 be
       -0.104303285 0.050068483 0.029922921 -0.16062972
000140 6a 40 bb bb 87 6f 71 bc 20 86 64 3b 7f 49 d9 bc
       -0.005714466 -0.014736063 0.0034869984 -0.026524303
000150 9c 10 ce bc 1a a2 8d bb fa b9 fd bc 1f ac 45 bd
       -0.025154404 -0.0043223025 -0.03097247 -0.04825985
000160 b2 ae 35 bd 0c 57 cb bc 77 2c a8 bc db 82 b8 bc
       -0.044356056 -0.02482178 -0.020529015 -0.022523334
000170 8d 54 0d bd 78 dd c3 ba 43 c8 d0 bb 41 22 ba bb
       -0.034504462 -0.0014943322 -0.0063715293 -0.005680353
000180 f8 70 25 bc a0 85 39 3b 60 f8 e1 bb 58 48 b3 bb
       -0.010097735 0.0028308406 -0.0068960637 -0.0054712705
000190 62 73 22 3c 49 01 a6 3c 5e 48 b2 bd 3c 42 43 3d
       0.009915205 0.020264285 -0.08705209 0.047670588
0001a0 12 26 2d 3d 07 f7 b0 bd ac 62 f1 3d 70 52 68 3e
       0.042272635 -0.08640867 0.11786398 0.22687697
0001b0 6f e4 54 bd 16 3e b8 bc 80 8b 72 b9 46 49 29 3c
       -0.051975664 -0.022490542 -0.00023130886 0.010332411
0001c0 44 ee df 3d 6a 51 67 bd 20 68 3b 3d dc 6b 59 3d
       0.109341174 -0.056474127 0.0457536 0.05308138
0001d0 64 8d 03 bd 5e 10 22 bd 84 32 98 bc 08 f7 94 3c
       -0.032117262 -0.03956639 -0.018578775 0.0181842
0001e0 10 d2 b6 3c f1 25 ff bb ba 24 f4 3c 84 a5 c1 bb
       0.022316962 -0.0077865054 0.029802669 -0.0059096236
0001f0 08 8e 86 3b d5 18 90 3c ec 9c 3c 3d de 60 b9 3c
       0.004106287 0.017589966 0.04604809 0.022629198
000200 2c 4a a1 3c 3c f4 77 bd 44 f8 d3 bc 26 79 33 bd
       0.019688688 -0.060535654 -0.025875218 -0.043816708
000210 ad 31 e2 3c d3 6a aa 3b c8 ae 91 3b 22 35 2e bd
       0.027611578 0.0052007227 0.0044458844 -0.04253114
000220 02 d6 fc bc ad ce 7d 3d e7 c9 9d 3c 15 bc 80 bd
       -0.030863766 0.06196468 0.019261314 -0.06285874
000230 58 9d 57 bc e4 ee 6a bd e4 a5 b7 3c da 70 c0 bc
       -0.013160072 -0.05735673 0.02241797 -0.023491312
000240 5d ea 0f bd 3a d2 36 bc e0 a1 f7 bd e3 9a 4d be
       -0.035135616 -0.01115852 -0.12091422 -0.20078616
000250 e5 92 65 bc 8b 9e 86 bd 72 a4 ba bc d7 0e f9 bc
       -0.014012073 -0.065732084 -0.022783492 -0.030402584
000260 11 b0 2f be 77 45 cf bc ae 1e 54 bd 96 67 cf bd
       -0.17157008 -0.025301678 -0.05178707 -0.10127179
000270 3f 98 8a bc 9c b5 10 bd 80 c6 a6 39 68 37 64 bd
       -0.0169183 -0.035329446 0.0003180988 -0.055716902
000280 74 c6 ae bc 60 4c 12 bc 12 87 22 3d e0 cb bc 3b
       -0.021334864 -0.008929342 0.039679594 0.0057616085
000290 ce a9 27 3c 0b 0a 18 3d ac 17 44 3b 46 33 a2 bc
       0.010233356 0.037118953 0.0029921336 -0.01979984
0002a0 78 b9 db 3c 3d 8e 68 3c 21 26 0d 3c 4e b9 59 3b
       0.026821837 0.0141940685 0.008615048 0.0033222022
0002b0 8e 01 1b bd 72 13 a2 3c 7f 32 b9 bc 24 50 91 bb
       -0.03784328 0.019784663 -0.022607086 -0.0044346023
0002c0 20 d5 2f 3c c0 0f 06 3a 74 89 79 3c 66 d6 e7 bb
       0.010731965 0.0005114041 0.015230525 -0.007075119
0002d0 20 d9 3f bd 25 d8 0e 3d 62 f2 cb bc 13 bc 1e 3d
       -0.046837926 0.0348741 -0.02489585 0.03875358
0002e0 bf dc 86 3d 0a c5 96 bc 4e c3 22 3e b3 27 69 3e
       0.06585073 -0.018404502 0.15894815 0.2276905
0002f0 4f 3e a0 3c b2 f5 22 bc cd 9d a2 3c 39 44 b8 3c
       0.019560961 -0.009946274 0.019850636 0.022493469
000300 b5 50 0c 3e 7a 71 ab bc 0b e1 e7 3c 87 9b 91 3d
       0.13702662 -0.020928133 0.028305551 0.071097426
000310 40 7a d9 bc 1a 41 8f bd 73 4f 05 bc c5 79 ab bb
       -0.026547551 -0.06994839 -0.008136618 -0.005233022

momentum_buffer f4 [10]
000000 98 1a 82 3c f8 7d d8 3a c0 fa a5 be 22 14 2d be
       0.015881822 0.0016517034 -0.3241787 -0.16902211
000010 91 ef 18 bd 04 99 5b 3d 32 1a 28 3c 6f 21 b1 bd
       -0.037337843 0.053612724 0.010260152 -0.08648955
000020 40 3e 93 3b f2 2e c8 3d
       0.0044935048 0.09774579

momentum_buffer f4 [1, 10]
000000 b3 99 5f 3e 0d fa bf bc f4 4e 32 3e 6e f0 26 3e
       0.21835975 -0.023434663 0.1741293 0.16302654
000010 e8 d8 89 3d 2e 19 8b 3d 95 3d 93 3d 5f 03 df 3c
       0.06730825 0.06791912 0.0718948 0.027223287
000020 9c 29 5f 3c d2 dc 2c 3d
       0.01362076 0.04220278
